<?xml version="1.0"?>
<net name="Model from PaddlePaddle." version="11">
	<layers>
		<layer id="0" name="x" type="Parameter" version="opset1">
			<data shape="?,?,?,3" element_type="u8" />
			<output>
				<port id="0" precision="U8" names="x">
					<dim>-1</dim>
					<dim>-1</dim>
					<dim>-1</dim>
					<dim>3</dim>
					<rt_info>
						<attribute name="layout" version="0" layout="[N,H,W,C]" />
					</rt_info>
				</port>
			</output>
		</layer>
		<layer id="1" name="whswish_b_28.w_0_compressed" type="Const" version="opset1">
			<data element_type="f16" shape="1" offset="0" size="2" />
			<output>
				<port id="0" precision="FP16" names="whswish_b_28.w_0">
					<dim>1</dim>
				</port>
			</output>
		</layer>
		<layer id="2" name="whswish_b_28.w_0" type="Convert" version="opset1">
			<data destination_type="f32" />
			<rt_info>
				<attribute name="decompression" version="0" />
			</rt_info>
			<input>
				<port id="0" precision="FP16">
					<dim>1</dim>
				</port>
			</input>
			<output>
				<port id="1" precision="FP32">
					<dim>1</dim>
				</port>
			</output>
		</layer>
		<layer id="3" name="mobile_one_block_27.w_0_compressed" type="Const" version="opset1">
			<data element_type="f16" shape="1" offset="2" size="2" />
			<output>
				<port id="0" precision="FP16" names="mobile_one_block_27.w_0">
					<dim>1</dim>
				</port>
			</output>
		</layer>
		<layer id="4" name="mobile_one_block_27.w_0" type="Convert" version="opset1">
			<data destination_type="f32" />
			<rt_info>
				<attribute name="decompression" version="0" />
			</rt_info>
			<input>
				<port id="0" precision="FP16">
					<dim>1</dim>
				</port>
			</input>
			<output>
				<port id="1" precision="FP32">
					<dim>1</dim>
				</port>
			</output>
		</layer>
		<layer id="5" name="whswish_b_27.w_0_compressed" type="Const" version="opset1">
			<data element_type="f16" shape="1" offset="4" size="2" />
			<output>
				<port id="0" precision="FP16" names="whswish_b_27.w_0">
					<dim>1</dim>
				</port>
			</output>
		</layer>
		<layer id="6" name="whswish_b_27.w_0" type="Convert" version="opset1">
			<data destination_type="f32" />
			<rt_info>
				<attribute name="decompression" version="0" />
			</rt_info>
			<input>
				<port id="0" precision="FP16">
					<dim>1</dim>
				</port>
			</input>
			<output>
				<port id="1" precision="FP32">
					<dim>1</dim>
				</port>
			</output>
		</layer>
		<layer id="7" name="mobile_one_block_26.w_0_compressed" type="Const" version="opset1">
			<data element_type="f16" shape="1" offset="6" size="2" />
			<output>
				<port id="0" precision="FP16" names="mobile_one_block_26.w_0">
					<dim>1</dim>
				</port>
			</output>
		</layer>
		<layer id="8" name="mobile_one_block_26.w_0" type="Convert" version="opset1">
			<data destination_type="f32" />
			<rt_info>
				<attribute name="decompression" version="0" />
			</rt_info>
			<input>
				<port id="0" precision="FP16">
					<dim>1</dim>
				</port>
			</input>
			<output>
				<port id="1" precision="FP32">
					<dim>1</dim>
				</port>
			</output>
		</layer>
		<layer id="9" name="whswish_b_26.w_0_compressed" type="Const" version="opset1">
			<data element_type="f16" shape="1" offset="8" size="2" />
			<output>
				<port id="0" precision="FP16" names="whswish_b_26.w_0">
					<dim>1</dim>
				</port>
			</output>
		</layer>
		<layer id="10" name="whswish_b_26.w_0" type="Convert" version="opset1">
			<data destination_type="f32" />
			<rt_info>
				<attribute name="decompression" version="0" />
			</rt_info>
			<input>
				<port id="0" precision="FP16">
					<dim>1</dim>
				</port>
			</input>
			<output>
				<port id="1" precision="FP32">
					<dim>1</dim>
				</port>
			</output>
		</layer>
		<layer id="11" name="mobile_one_block_25.w_0_compressed" type="Const" version="opset1">
			<data element_type="f16" shape="1" offset="10" size="2" />
			<output>
				<port id="0" precision="FP16" names="mobile_one_block_25.w_0">
					<dim>1</dim>
				</port>
			</output>
		</layer>
		<layer id="12" name="mobile_one_block_25.w_0" type="Convert" version="opset1">
			<data destination_type="f32" />
			<rt_info>
				<attribute name="decompression" version="0" />
			</rt_info>
			<input>
				<port id="0" precision="FP16">
					<dim>1</dim>
				</port>
			</input>
			<output>
				<port id="1" precision="FP32">
					<dim>1</dim>
				</port>
			</output>
		</layer>
		<layer id="13" name="whswish_b_25.w_0_compressed" type="Const" version="opset1">
			<data element_type="f16" shape="1" offset="12" size="2" />
			<output>
				<port id="0" precision="FP16" names="whswish_b_25.w_0">
					<dim>1</dim>
				</port>
			</output>
		</layer>
		<layer id="14" name="whswish_b_25.w_0" type="Convert" version="opset1">
			<data destination_type="f32" />
			<rt_info>
				<attribute name="decompression" version="0" />
			</rt_info>
			<input>
				<port id="0" precision="FP16">
					<dim>1</dim>
				</port>
			</input>
			<output>
				<port id="1" precision="FP32">
					<dim>1</dim>
				</port>
			</output>
		</layer>
		<layer id="15" name="mobile_one_block_24.w_0_compressed" type="Const" version="opset1">
			<data element_type="f16" shape="1" offset="14" size="2" />
			<output>
				<port id="0" precision="FP16" names="mobile_one_block_24.w_0">
					<dim>1</dim>
				</port>
			</output>
		</layer>
		<layer id="16" name="mobile_one_block_24.w_0" type="Convert" version="opset1">
			<data destination_type="f32" />
			<rt_info>
				<attribute name="decompression" version="0" />
			</rt_info>
			<input>
				<port id="0" precision="FP16">
					<dim>1</dim>
				</port>
			</input>
			<output>
				<port id="1" precision="FP32">
					<dim>1</dim>
				</port>
			</output>
		</layer>
		<layer id="17" name="whswish_b_24.w_0_compressed" type="Const" version="opset1">
			<data element_type="f16" shape="1" offset="16" size="2" />
			<output>
				<port id="0" precision="FP16" names="whswish_b_24.w_0">
					<dim>1</dim>
				</port>
			</output>
		</layer>
		<layer id="18" name="whswish_b_24.w_0" type="Convert" version="opset1">
			<data destination_type="f32" />
			<rt_info>
				<attribute name="decompression" version="0" />
			</rt_info>
			<input>
				<port id="0" precision="FP16">
					<dim>1</dim>
				</port>
			</input>
			<output>
				<port id="1" precision="FP32">
					<dim>1</dim>
				</port>
			</output>
		</layer>
		<layer id="19" name="mobile_one_block_23.w_0_compressed" type="Const" version="opset1">
			<data element_type="f16" shape="1" offset="18" size="2" />
			<output>
				<port id="0" precision="FP16" names="mobile_one_block_23.w_0">
					<dim>1</dim>
				</port>
			</output>
		</layer>
		<layer id="20" name="mobile_one_block_23.w_0" type="Convert" version="opset1">
			<data destination_type="f32" />
			<rt_info>
				<attribute name="decompression" version="0" />
			</rt_info>
			<input>
				<port id="0" precision="FP16">
					<dim>1</dim>
				</port>
			</input>
			<output>
				<port id="1" precision="FP32">
					<dim>1</dim>
				</port>
			</output>
		</layer>
		<layer id="21" name="whswish_b_23.w_0_compressed" type="Const" version="opset1">
			<data element_type="f16" shape="1" offset="20" size="2" />
			<output>
				<port id="0" precision="FP16" names="whswish_b_23.w_0">
					<dim>1</dim>
				</port>
			</output>
		</layer>
		<layer id="22" name="whswish_b_23.w_0" type="Convert" version="opset1">
			<data destination_type="f32" />
			<rt_info>
				<attribute name="decompression" version="0" />
			</rt_info>
			<input>
				<port id="0" precision="FP16">
					<dim>1</dim>
				</port>
			</input>
			<output>
				<port id="1" precision="FP32">
					<dim>1</dim>
				</port>
			</output>
		</layer>
		<layer id="23" name="mobile_one_block_22.w_0_compressed" type="Const" version="opset1">
			<data element_type="f16" shape="1" offset="22" size="2" />
			<output>
				<port id="0" precision="FP16" names="mobile_one_block_22.w_0">
					<dim>1</dim>
				</port>
			</output>
		</layer>
		<layer id="24" name="mobile_one_block_22.w_0" type="Convert" version="opset1">
			<data destination_type="f32" />
			<rt_info>
				<attribute name="decompression" version="0" />
			</rt_info>
			<input>
				<port id="0" precision="FP16">
					<dim>1</dim>
				</port>
			</input>
			<output>
				<port id="1" precision="FP32">
					<dim>1</dim>
				</port>
			</output>
		</layer>
		<layer id="25" name="whswish_b_22.w_0_compressed" type="Const" version="opset1">
			<data element_type="f16" shape="1" offset="24" size="2" />
			<output>
				<port id="0" precision="FP16" names="whswish_b_22.w_0">
					<dim>1</dim>
				</port>
			</output>
		</layer>
		<layer id="26" name="whswish_b_22.w_0" type="Convert" version="opset1">
			<data destination_type="f32" />
			<rt_info>
				<attribute name="decompression" version="0" />
			</rt_info>
			<input>
				<port id="0" precision="FP16">
					<dim>1</dim>
				</port>
			</input>
			<output>
				<port id="1" precision="FP32">
					<dim>1</dim>
				</port>
			</output>
		</layer>
		<layer id="27" name="mobile_one_block_21.w_0_compressed" type="Const" version="opset1">
			<data element_type="f16" shape="1" offset="26" size="2" />
			<output>
				<port id="0" precision="FP16" names="mobile_one_block_21.w_0">
					<dim>1</dim>
				</port>
			</output>
		</layer>
		<layer id="28" name="mobile_one_block_21.w_0" type="Convert" version="opset1">
			<data destination_type="f32" />
			<rt_info>
				<attribute name="decompression" version="0" />
			</rt_info>
			<input>
				<port id="0" precision="FP16">
					<dim>1</dim>
				</port>
			</input>
			<output>
				<port id="1" precision="FP32">
					<dim>1</dim>
				</port>
			</output>
		</layer>
		<layer id="29" name="mobile_one_block_20.w_0_compressed" type="Const" version="opset1">
			<data element_type="f16" shape="1" offset="28" size="2" />
			<output>
				<port id="0" precision="FP16" names="mobile_one_block_20.w_0">
					<dim>1</dim>
				</port>
			</output>
		</layer>
		<layer id="30" name="mobile_one_block_20.w_0" type="Convert" version="opset1">
			<data destination_type="f32" />
			<rt_info>
				<attribute name="decompression" version="0" />
			</rt_info>
			<input>
				<port id="0" precision="FP16">
					<dim>1</dim>
				</port>
			</input>
			<output>
				<port id="1" precision="FP32">
					<dim>1</dim>
				</port>
			</output>
		</layer>
		<layer id="31" name="whswish_b_20.w_0_compressed" type="Const" version="opset1">
			<data element_type="f16" shape="1" offset="30" size="2" />
			<output>
				<port id="0" precision="FP16" names="whswish_b_20.w_0">
					<dim>1</dim>
				</port>
			</output>
		</layer>
		<layer id="32" name="whswish_b_20.w_0" type="Convert" version="opset1">
			<data destination_type="f32" />
			<rt_info>
				<attribute name="decompression" version="0" />
			</rt_info>
			<input>
				<port id="0" precision="FP16">
					<dim>1</dim>
				</port>
			</input>
			<output>
				<port id="1" precision="FP32">
					<dim>1</dim>
				</port>
			</output>
		</layer>
		<layer id="33" name="mobile_one_block_19.w_0_compressed" type="Const" version="opset1">
			<data element_type="f16" shape="1" offset="32" size="2" />
			<output>
				<port id="0" precision="FP16" names="mobile_one_block_19.w_0">
					<dim>1</dim>
				</port>
			</output>
		</layer>
		<layer id="34" name="mobile_one_block_19.w_0" type="Convert" version="opset1">
			<data destination_type="f32" />
			<rt_info>
				<attribute name="decompression" version="0" />
			</rt_info>
			<input>
				<port id="0" precision="FP16">
					<dim>1</dim>
				</port>
			</input>
			<output>
				<port id="1" precision="FP32">
					<dim>1</dim>
				</port>
			</output>
		</layer>
		<layer id="35" name="whswish_b_19.w_0_compressed" type="Const" version="opset1">
			<data element_type="f16" shape="1" offset="34" size="2" />
			<output>
				<port id="0" precision="FP16" names="whswish_b_19.w_0">
					<dim>1</dim>
				</port>
			</output>
		</layer>
		<layer id="36" name="whswish_b_19.w_0" type="Convert" version="opset1">
			<data destination_type="f32" />
			<rt_info>
				<attribute name="decompression" version="0" />
			</rt_info>
			<input>
				<port id="0" precision="FP16">
					<dim>1</dim>
				</port>
			</input>
			<output>
				<port id="1" precision="FP32">
					<dim>1</dim>
				</port>
			</output>
		</layer>
		<layer id="37" name="mobile_one_block_18.w_0_compressed" type="Const" version="opset1">
			<data element_type="f16" shape="1" offset="36" size="2" />
			<output>
				<port id="0" precision="FP16" names="mobile_one_block_18.w_0">
					<dim>1</dim>
				</port>
			</output>
		</layer>
		<layer id="38" name="mobile_one_block_18.w_0" type="Convert" version="opset1">
			<data destination_type="f32" />
			<rt_info>
				<attribute name="decompression" version="0" />
			</rt_info>
			<input>
				<port id="0" precision="FP16">
					<dim>1</dim>
				</port>
			</input>
			<output>
				<port id="1" precision="FP32">
					<dim>1</dim>
				</port>
			</output>
		</layer>
		<layer id="39" name="whswish_b_18.w_0_compressed" type="Const" version="opset1">
			<data element_type="f16" shape="1" offset="38" size="2" />
			<output>
				<port id="0" precision="FP16" names="whswish_b_18.w_0">
					<dim>1</dim>
				</port>
			</output>
		</layer>
		<layer id="40" name="whswish_b_18.w_0" type="Convert" version="opset1">
			<data destination_type="f32" />
			<rt_info>
				<attribute name="decompression" version="0" />
			</rt_info>
			<input>
				<port id="0" precision="FP16">
					<dim>1</dim>
				</port>
			</input>
			<output>
				<port id="1" precision="FP32">
					<dim>1</dim>
				</port>
			</output>
		</layer>
		<layer id="41" name="mobile_one_block_17.w_0_compressed" type="Const" version="opset1">
			<data element_type="f16" shape="1" offset="40" size="2" />
			<output>
				<port id="0" precision="FP16" names="mobile_one_block_17.w_0">
					<dim>1</dim>
				</port>
			</output>
		</layer>
		<layer id="42" name="mobile_one_block_17.w_0" type="Convert" version="opset1">
			<data destination_type="f32" />
			<rt_info>
				<attribute name="decompression" version="0" />
			</rt_info>
			<input>
				<port id="0" precision="FP16">
					<dim>1</dim>
				</port>
			</input>
			<output>
				<port id="1" precision="FP32">
					<dim>1</dim>
				</port>
			</output>
		</layer>
		<layer id="43" name="whswish_b_17.w_0_compressed" type="Const" version="opset1">
			<data element_type="f16" shape="1" offset="42" size="2" />
			<output>
				<port id="0" precision="FP16" names="whswish_b_17.w_0">
					<dim>1</dim>
				</port>
			</output>
		</layer>
		<layer id="44" name="whswish_b_17.w_0" type="Convert" version="opset1">
			<data destination_type="f32" />
			<rt_info>
				<attribute name="decompression" version="0" />
			</rt_info>
			<input>
				<port id="0" precision="FP16">
					<dim>1</dim>
				</port>
			</input>
			<output>
				<port id="1" precision="FP32">
					<dim>1</dim>
				</port>
			</output>
		</layer>
		<layer id="45" name="mobile_one_block_16.w_0_compressed" type="Const" version="opset1">
			<data element_type="f16" shape="1" offset="44" size="2" />
			<output>
				<port id="0" precision="FP16" names="mobile_one_block_16.w_0">
					<dim>1</dim>
				</port>
			</output>
		</layer>
		<layer id="46" name="mobile_one_block_16.w_0" type="Convert" version="opset1">
			<data destination_type="f32" />
			<rt_info>
				<attribute name="decompression" version="0" />
			</rt_info>
			<input>
				<port id="0" precision="FP16">
					<dim>1</dim>
				</port>
			</input>
			<output>
				<port id="1" precision="FP32">
					<dim>1</dim>
				</port>
			</output>
		</layer>
		<layer id="47" name="whswish_b_16.w_0_compressed" type="Const" version="opset1">
			<data element_type="f16" shape="1" offset="46" size="2" />
			<output>
				<port id="0" precision="FP16" names="whswish_b_16.w_0">
					<dim>1</dim>
				</port>
			</output>
		</layer>
		<layer id="48" name="whswish_b_16.w_0" type="Convert" version="opset1">
			<data destination_type="f32" />
			<rt_info>
				<attribute name="decompression" version="0" />
			</rt_info>
			<input>
				<port id="0" precision="FP16">
					<dim>1</dim>
				</port>
			</input>
			<output>
				<port id="1" precision="FP32">
					<dim>1</dim>
				</port>
			</output>
		</layer>
		<layer id="49" name="mobile_one_block_15.w_0_compressed" type="Const" version="opset1">
			<data element_type="f16" shape="1" offset="48" size="2" />
			<output>
				<port id="0" precision="FP16" names="mobile_one_block_15.w_0">
					<dim>1</dim>
				</port>
			</output>
		</layer>
		<layer id="50" name="mobile_one_block_15.w_0" type="Convert" version="opset1">
			<data destination_type="f32" />
			<rt_info>
				<attribute name="decompression" version="0" />
			</rt_info>
			<input>
				<port id="0" precision="FP16">
					<dim>1</dim>
				</port>
			</input>
			<output>
				<port id="1" precision="FP32">
					<dim>1</dim>
				</port>
			</output>
		</layer>
		<layer id="51" name="whswish_b_15.w_0_compressed" type="Const" version="opset1">
			<data element_type="f16" shape="1" offset="50" size="2" />
			<output>
				<port id="0" precision="FP16" names="whswish_b_15.w_0">
					<dim>1</dim>
				</port>
			</output>
		</layer>
		<layer id="52" name="whswish_b_15.w_0" type="Convert" version="opset1">
			<data destination_type="f32" />
			<rt_info>
				<attribute name="decompression" version="0" />
			</rt_info>
			<input>
				<port id="0" precision="FP16">
					<dim>1</dim>
				</port>
			</input>
			<output>
				<port id="1" precision="FP32">
					<dim>1</dim>
				</port>
			</output>
		</layer>
		<layer id="53" name="mobile_one_block_14.w_0_compressed" type="Const" version="opset1">
			<data element_type="f16" shape="1" offset="52" size="2" />
			<output>
				<port id="0" precision="FP16" names="mobile_one_block_14.w_0">
					<dim>1</dim>
				</port>
			</output>
		</layer>
		<layer id="54" name="mobile_one_block_14.w_0" type="Convert" version="opset1">
			<data destination_type="f32" />
			<rt_info>
				<attribute name="decompression" version="0" />
			</rt_info>
			<input>
				<port id="0" precision="FP16">
					<dim>1</dim>
				</port>
			</input>
			<output>
				<port id="1" precision="FP32">
					<dim>1</dim>
				</port>
			</output>
		</layer>
		<layer id="55" name="whswish_b_14.w_0_compressed" type="Const" version="opset1">
			<data element_type="f16" shape="1" offset="54" size="2" />
			<output>
				<port id="0" precision="FP16" names="whswish_b_14.w_0">
					<dim>1</dim>
				</port>
			</output>
		</layer>
		<layer id="56" name="whswish_b_14.w_0" type="Convert" version="opset1">
			<data destination_type="f32" />
			<rt_info>
				<attribute name="decompression" version="0" />
			</rt_info>
			<input>
				<port id="0" precision="FP16">
					<dim>1</dim>
				</port>
			</input>
			<output>
				<port id="1" precision="FP32">
					<dim>1</dim>
				</port>
			</output>
		</layer>
		<layer id="57" name="mobile_one_block_13.w_0_compressed" type="Const" version="opset1">
			<data element_type="f16" shape="1" offset="56" size="2" />
			<output>
				<port id="0" precision="FP16" names="mobile_one_block_13.w_0">
					<dim>1</dim>
				</port>
			</output>
		</layer>
		<layer id="58" name="mobile_one_block_13.w_0" type="Convert" version="opset1">
			<data destination_type="f32" />
			<rt_info>
				<attribute name="decompression" version="0" />
			</rt_info>
			<input>
				<port id="0" precision="FP16">
					<dim>1</dim>
				</port>
			</input>
			<output>
				<port id="1" precision="FP32">
					<dim>1</dim>
				</port>
			</output>
		</layer>
		<layer id="59" name="whswish_b_13.w_0_compressed" type="Const" version="opset1">
			<data element_type="f16" shape="1" offset="58" size="2" />
			<output>
				<port id="0" precision="FP16" names="whswish_b_13.w_0">
					<dim>1</dim>
				</port>
			</output>
		</layer>
		<layer id="60" name="whswish_b_13.w_0" type="Convert" version="opset1">
			<data destination_type="f32" />
			<rt_info>
				<attribute name="decompression" version="0" />
			</rt_info>
			<input>
				<port id="0" precision="FP16">
					<dim>1</dim>
				</port>
			</input>
			<output>
				<port id="1" precision="FP32">
					<dim>1</dim>
				</port>
			</output>
		</layer>
		<layer id="61" name="mobile_one_block_12.w_0_compressed" type="Const" version="opset1">
			<data element_type="f16" shape="1" offset="60" size="2" />
			<output>
				<port id="0" precision="FP16" names="mobile_one_block_12.w_0">
					<dim>1</dim>
				</port>
			</output>
		</layer>
		<layer id="62" name="mobile_one_block_12.w_0" type="Convert" version="opset1">
			<data destination_type="f32" />
			<rt_info>
				<attribute name="decompression" version="0" />
			</rt_info>
			<input>
				<port id="0" precision="FP16">
					<dim>1</dim>
				</port>
			</input>
			<output>
				<port id="1" precision="FP32">
					<dim>1</dim>
				</port>
			</output>
		</layer>
		<layer id="63" name="whswish_b_12.w_0_compressed" type="Const" version="opset1">
			<data element_type="f16" shape="1" offset="62" size="2" />
			<output>
				<port id="0" precision="FP16" names="whswish_b_12.w_0">
					<dim>1</dim>
				</port>
			</output>
		</layer>
		<layer id="64" name="whswish_b_12.w_0" type="Convert" version="opset1">
			<data destination_type="f32" />
			<rt_info>
				<attribute name="decompression" version="0" />
			</rt_info>
			<input>
				<port id="0" precision="FP16">
					<dim>1</dim>
				</port>
			</input>
			<output>
				<port id="1" precision="FP32">
					<dim>1</dim>
				</port>
			</output>
		</layer>
		<layer id="65" name="mobile_one_block_11.w_0_compressed" type="Const" version="opset1">
			<data element_type="f16" shape="1" offset="64" size="2" />
			<output>
				<port id="0" precision="FP16" names="mobile_one_block_11.w_0">
					<dim>1</dim>
				</port>
			</output>
		</layer>
		<layer id="66" name="mobile_one_block_11.w_0" type="Convert" version="opset1">
			<data destination_type="f32" />
			<rt_info>
				<attribute name="decompression" version="0" />
			</rt_info>
			<input>
				<port id="0" precision="FP16">
					<dim>1</dim>
				</port>
			</input>
			<output>
				<port id="1" precision="FP32">
					<dim>1</dim>
				</port>
			</output>
		</layer>
		<layer id="67" name="mobile_one_block_10.w_0_compressed" type="Const" version="opset1">
			<data element_type="f16" shape="1" offset="66" size="2" />
			<output>
				<port id="0" precision="FP16" names="mobile_one_block_10.w_0">
					<dim>1</dim>
				</port>
			</output>
		</layer>
		<layer id="68" name="mobile_one_block_10.w_0" type="Convert" version="opset1">
			<data destination_type="f32" />
			<rt_info>
				<attribute name="decompression" version="0" />
			</rt_info>
			<input>
				<port id="0" precision="FP16">
					<dim>1</dim>
				</port>
			</input>
			<output>
				<port id="1" precision="FP32">
					<dim>1</dim>
				</port>
			</output>
		</layer>
		<layer id="69" name="whswish_b_10.w_0_compressed" type="Const" version="opset1">
			<data element_type="f16" shape="1" offset="68" size="2" />
			<output>
				<port id="0" precision="FP16" names="whswish_b_10.w_0">
					<dim>1</dim>
				</port>
			</output>
		</layer>
		<layer id="70" name="whswish_b_10.w_0" type="Convert" version="opset1">
			<data destination_type="f32" />
			<rt_info>
				<attribute name="decompression" version="0" />
			</rt_info>
			<input>
				<port id="0" precision="FP16">
					<dim>1</dim>
				</port>
			</input>
			<output>
				<port id="1" precision="FP32">
					<dim>1</dim>
				</port>
			</output>
		</layer>
		<layer id="71" name="mobile_one_block_9.w_0_compressed" type="Const" version="opset1">
			<data element_type="f16" shape="1" offset="70" size="2" />
			<output>
				<port id="0" precision="FP16" names="mobile_one_block_9.w_0">
					<dim>1</dim>
				</port>
			</output>
		</layer>
		<layer id="72" name="mobile_one_block_9.w_0" type="Convert" version="opset1">
			<data destination_type="f32" />
			<rt_info>
				<attribute name="decompression" version="0" />
			</rt_info>
			<input>
				<port id="0" precision="FP16">
					<dim>1</dim>
				</port>
			</input>
			<output>
				<port id="1" precision="FP32">
					<dim>1</dim>
				</port>
			</output>
		</layer>
		<layer id="73" name="whswish_b_9.w_0_compressed" type="Const" version="opset1">
			<data element_type="f16" shape="1" offset="72" size="2" />
			<output>
				<port id="0" precision="FP16" names="whswish_b_9.w_0">
					<dim>1</dim>
				</port>
			</output>
		</layer>
		<layer id="74" name="whswish_b_9.w_0" type="Convert" version="opset1">
			<data destination_type="f32" />
			<rt_info>
				<attribute name="decompression" version="0" />
			</rt_info>
			<input>
				<port id="0" precision="FP16">
					<dim>1</dim>
				</port>
			</input>
			<output>
				<port id="1" precision="FP32">
					<dim>1</dim>
				</port>
			</output>
		</layer>
		<layer id="75" name="mobile_one_block_8.w_0_compressed" type="Const" version="opset1">
			<data element_type="f16" shape="1" offset="74" size="2" />
			<output>
				<port id="0" precision="FP16" names="mobile_one_block_8.w_0">
					<dim>1</dim>
				</port>
			</output>
		</layer>
		<layer id="76" name="mobile_one_block_8.w_0" type="Convert" version="opset1">
			<data destination_type="f32" />
			<rt_info>
				<attribute name="decompression" version="0" />
			</rt_info>
			<input>
				<port id="0" precision="FP16">
					<dim>1</dim>
				</port>
			</input>
			<output>
				<port id="1" precision="FP32">
					<dim>1</dim>
				</port>
			</output>
		</layer>
		<layer id="77" name="whswish_b_8.w_0_compressed" type="Const" version="opset1">
			<data element_type="f16" shape="1" offset="76" size="2" />
			<output>
				<port id="0" precision="FP16" names="whswish_b_8.w_0">
					<dim>1</dim>
				</port>
			</output>
		</layer>
		<layer id="78" name="whswish_b_8.w_0" type="Convert" version="opset1">
			<data destination_type="f32" />
			<rt_info>
				<attribute name="decompression" version="0" />
			</rt_info>
			<input>
				<port id="0" precision="FP16">
					<dim>1</dim>
				</port>
			</input>
			<output>
				<port id="1" precision="FP32">
					<dim>1</dim>
				</port>
			</output>
		</layer>
		<layer id="79" name="mobile_one_block_7.w_0_compressed" type="Const" version="opset1">
			<data element_type="f16" shape="1" offset="78" size="2" />
			<output>
				<port id="0" precision="FP16" names="mobile_one_block_7.w_0">
					<dim>1</dim>
				</port>
			</output>
		</layer>
		<layer id="80" name="mobile_one_block_7.w_0" type="Convert" version="opset1">
			<data destination_type="f32" />
			<rt_info>
				<attribute name="decompression" version="0" />
			</rt_info>
			<input>
				<port id="0" precision="FP16">
					<dim>1</dim>
				</port>
			</input>
			<output>
				<port id="1" precision="FP32">
					<dim>1</dim>
				</port>
			</output>
		</layer>
		<layer id="81" name="mobile_one_block_6.w_0_compressed" type="Const" version="opset1">
			<data element_type="f16" shape="1" offset="80" size="2" />
			<output>
				<port id="0" precision="FP16" names="mobile_one_block_6.w_0">
					<dim>1</dim>
				</port>
			</output>
		</layer>
		<layer id="82" name="mobile_one_block_6.w_0" type="Convert" version="opset1">
			<data destination_type="f32" />
			<rt_info>
				<attribute name="decompression" version="0" />
			</rt_info>
			<input>
				<port id="0" precision="FP16">
					<dim>1</dim>
				</port>
			</input>
			<output>
				<port id="1" precision="FP32">
					<dim>1</dim>
				</port>
			</output>
		</layer>
		<layer id="83" name="whswish_b_6.w_0_compressed" type="Const" version="opset1">
			<data element_type="f16" shape="1" offset="82" size="2" />
			<output>
				<port id="0" precision="FP16" names="whswish_b_6.w_0">
					<dim>1</dim>
				</port>
			</output>
		</layer>
		<layer id="84" name="whswish_b_6.w_0" type="Convert" version="opset1">
			<data destination_type="f32" />
			<rt_info>
				<attribute name="decompression" version="0" />
			</rt_info>
			<input>
				<port id="0" precision="FP16">
					<dim>1</dim>
				</port>
			</input>
			<output>
				<port id="1" precision="FP32">
					<dim>1</dim>
				</port>
			</output>
		</layer>
		<layer id="85" name="mobile_one_block_5.w_0_compressed" type="Const" version="opset1">
			<data element_type="f16" shape="1" offset="84" size="2" />
			<output>
				<port id="0" precision="FP16" names="mobile_one_block_5.w_0">
					<dim>1</dim>
				</port>
			</output>
		</layer>
		<layer id="86" name="mobile_one_block_5.w_0" type="Convert" version="opset1">
			<data destination_type="f32" />
			<rt_info>
				<attribute name="decompression" version="0" />
			</rt_info>
			<input>
				<port id="0" precision="FP16">
					<dim>1</dim>
				</port>
			</input>
			<output>
				<port id="1" precision="FP32">
					<dim>1</dim>
				</port>
			</output>
		</layer>
		<layer id="87" name="whswish_b_5.w_0_compressed" type="Const" version="opset1">
			<data element_type="f16" shape="1" offset="86" size="2" />
			<output>
				<port id="0" precision="FP16" names="whswish_b_5.w_0">
					<dim>1</dim>
				</port>
			</output>
		</layer>
		<layer id="88" name="whswish_b_5.w_0" type="Convert" version="opset1">
			<data destination_type="f32" />
			<rt_info>
				<attribute name="decompression" version="0" />
			</rt_info>
			<input>
				<port id="0" precision="FP16">
					<dim>1</dim>
				</port>
			</input>
			<output>
				<port id="1" precision="FP32">
					<dim>1</dim>
				</port>
			</output>
		</layer>
		<layer id="89" name="mobile_one_block_4.w_0_compressed" type="Const" version="opset1">
			<data element_type="f16" shape="1" offset="88" size="2" />
			<output>
				<port id="0" precision="FP16" names="mobile_one_block_4.w_0">
					<dim>1</dim>
				</port>
			</output>
		</layer>
		<layer id="90" name="mobile_one_block_4.w_0" type="Convert" version="opset1">
			<data destination_type="f32" />
			<rt_info>
				<attribute name="decompression" version="0" />
			</rt_info>
			<input>
				<port id="0" precision="FP16">
					<dim>1</dim>
				</port>
			</input>
			<output>
				<port id="1" precision="FP32">
					<dim>1</dim>
				</port>
			</output>
		</layer>
		<layer id="91" name="whswish_b_4.w_0_compressed" type="Const" version="opset1">
			<data element_type="f16" shape="1" offset="90" size="2" />
			<output>
				<port id="0" precision="FP16" names="whswish_b_4.w_0">
					<dim>1</dim>
				</port>
			</output>
		</layer>
		<layer id="92" name="whswish_b_4.w_0" type="Convert" version="opset1">
			<data destination_type="f32" />
			<rt_info>
				<attribute name="decompression" version="0" />
			</rt_info>
			<input>
				<port id="0" precision="FP16">
					<dim>1</dim>
				</port>
			</input>
			<output>
				<port id="1" precision="FP32">
					<dim>1</dim>
				</port>
			</output>
		</layer>
		<layer id="93" name="mobile_one_block_3.w_0_compressed" type="Const" version="opset1">
			<data element_type="f16" shape="1" offset="92" size="2" />
			<output>
				<port id="0" precision="FP16" names="mobile_one_block_3.w_0">
					<dim>1</dim>
				</port>
			</output>
		</layer>
		<layer id="94" name="mobile_one_block_3.w_0" type="Convert" version="opset1">
			<data destination_type="f32" />
			<rt_info>
				<attribute name="decompression" version="0" />
			</rt_info>
			<input>
				<port id="0" precision="FP16">
					<dim>1</dim>
				</port>
			</input>
			<output>
				<port id="1" precision="FP32">
					<dim>1</dim>
				</port>
			</output>
		</layer>
		<layer id="95" name="mobile_one_block_2.w_0_compressed" type="Const" version="opset1">
			<data element_type="f16" shape="1" offset="94" size="2" />
			<output>
				<port id="0" precision="FP16" names="mobile_one_block_2.w_0">
					<dim>1</dim>
				</port>
			</output>
		</layer>
		<layer id="96" name="mobile_one_block_2.w_0" type="Convert" version="opset1">
			<data destination_type="f32" />
			<rt_info>
				<attribute name="decompression" version="0" />
			</rt_info>
			<input>
				<port id="0" precision="FP16">
					<dim>1</dim>
				</port>
			</input>
			<output>
				<port id="1" precision="FP32">
					<dim>1</dim>
				</port>
			</output>
		</layer>
		<layer id="97" name="whswish_b_2.w_0_compressed" type="Const" version="opset1">
			<data element_type="f16" shape="1" offset="96" size="2" />
			<output>
				<port id="0" precision="FP16" names="whswish_b_2.w_0">
					<dim>1</dim>
				</port>
			</output>
		</layer>
		<layer id="98" name="whswish_b_2.w_0" type="Convert" version="opset1">
			<data destination_type="f32" />
			<rt_info>
				<attribute name="decompression" version="0" />
			</rt_info>
			<input>
				<port id="0" precision="FP16">
					<dim>1</dim>
				</port>
			</input>
			<output>
				<port id="1" precision="FP32">
					<dim>1</dim>
				</port>
			</output>
		</layer>
		<layer id="99" name="mobile_one_block_1.w_0_compressed" type="Const" version="opset1">
			<data element_type="f16" shape="1" offset="98" size="2" />
			<output>
				<port id="0" precision="FP16" names="mobile_one_block_1.w_0">
					<dim>1</dim>
				</port>
			</output>
		</layer>
		<layer id="100" name="mobile_one_block_1.w_0" type="Convert" version="opset1">
			<data destination_type="f32" />
			<rt_info>
				<attribute name="decompression" version="0" />
			</rt_info>
			<input>
				<port id="0" precision="FP16">
					<dim>1</dim>
				</port>
			</input>
			<output>
				<port id="1" precision="FP32">
					<dim>1</dim>
				</port>
			</output>
		</layer>
		<layer id="101" name="whswish_b_1.w_0_compressed" type="Const" version="opset1">
			<data element_type="f16" shape="1" offset="100" size="2" />
			<output>
				<port id="0" precision="FP16" names="whswish_b_1.w_0">
					<dim>1</dim>
				</port>
			</output>
		</layer>
		<layer id="102" name="whswish_b_1.w_0" type="Convert" version="opset1">
			<data destination_type="f32" />
			<rt_info>
				<attribute name="decompression" version="0" />
			</rt_info>
			<input>
				<port id="0" precision="FP16">
					<dim>1</dim>
				</port>
			</input>
			<output>
				<port id="1" precision="FP32">
					<dim>1</dim>
				</port>
			</output>
		</layer>
		<layer id="103" name="mobile_one_block_0.w_0_compressed" type="Const" version="opset1">
			<data element_type="f16" shape="1" offset="20" size="2" />
			<output>
				<port id="0" precision="FP16" names="mobile_one_block_0.w_0">
					<dim>1</dim>
				</port>
			</output>
		</layer>
		<layer id="104" name="mobile_one_block_0.w_0" type="Convert" version="opset1">
			<data destination_type="f32" />
			<rt_info>
				<attribute name="decompression" version="0" />
			</rt_info>
			<input>
				<port id="0" precision="FP16">
					<dim>1</dim>
				</port>
			</input>
			<output>
				<port id="1" precision="FP32">
					<dim>1</dim>
				</port>
			</output>
		</layer>
		<layer id="105" name="Convert_2088" type="Convert" version="opset1">
			<data destination_type="f32" />
			<input>
				<port id="0" precision="U8">
					<dim>-1</dim>
					<dim>-1</dim>
					<dim>-1</dim>
					<dim>3</dim>
				</port>
			</input>
			<output>
				<port id="1" precision="FP32">
					<dim>-1</dim>
					<dim>-1</dim>
					<dim>-1</dim>
					<dim>3</dim>
				</port>
			</output>
		</layer>
		<layer id="106" name="Gather_3118_compressed" type="Const" version="opset1">
			<data element_type="f16" shape="1, 1, 1, 3" offset="102" size="6" />
			<output>
				<port id="0" precision="FP16">
					<dim>1</dim>
					<dim>1</dim>
					<dim>1</dim>
					<dim>3</dim>
				</port>
			</output>
		</layer>
		<layer id="107" name="Gather_3118" type="Convert" version="opset1">
			<data destination_type="f32" />
			<rt_info>
				<attribute name="decompression" version="0" />
			</rt_info>
			<input>
				<port id="0" precision="FP16">
					<dim>1</dim>
					<dim>1</dim>
					<dim>1</dim>
					<dim>3</dim>
				</port>
			</input>
			<output>
				<port id="1" precision="FP32">
					<dim>1</dim>
					<dim>1</dim>
					<dim>1</dim>
					<dim>3</dim>
				</port>
			</output>
		</layer>
		<layer id="108" name="Subtract_2096" type="Subtract" version="opset1">
			<data auto_broadcast="numpy" />
			<rt_info>
				<attribute name="preprocessing" version="0" />
			</rt_info>
			<input>
				<port id="0" precision="FP32">
					<dim>-1</dim>
					<dim>-1</dim>
					<dim>-1</dim>
					<dim>3</dim>
				</port>
				<port id="1" precision="FP32">
					<dim>1</dim>
					<dim>1</dim>
					<dim>1</dim>
					<dim>3</dim>
				</port>
			</input>
			<output>
				<port id="2" precision="FP32">
					<dim>-1</dim>
					<dim>-1</dim>
					<dim>-1</dim>
					<dim>3</dim>
				</port>
			</output>
		</layer>
		<layer id="109" name="Gather_3121_compressed" type="Const" version="opset1">
			<data element_type="f16" shape="1, 1, 1, 3" offset="108" size="6" />
			<output>
				<port id="0" precision="FP16">
					<dim>1</dim>
					<dim>1</dim>
					<dim>1</dim>
					<dim>3</dim>
				</port>
			</output>
		</layer>
		<layer id="110" name="Gather_3121" type="Convert" version="opset1">
			<data destination_type="f32" />
			<rt_info>
				<attribute name="decompression" version="0" />
			</rt_info>
			<input>
				<port id="0" precision="FP16">
					<dim>1</dim>
					<dim>1</dim>
					<dim>1</dim>
					<dim>3</dim>
				</port>
			</input>
			<output>
				<port id="1" precision="FP32">
					<dim>1</dim>
					<dim>1</dim>
					<dim>1</dim>
					<dim>3</dim>
				</port>
			</output>
		</layer>
		<layer id="111" name="Divide_2098" type="Multiply" version="opset1">
			<data auto_broadcast="numpy" />
			<rt_info>
				<attribute name="preprocessing" version="0" />
			</rt_info>
			<input>
				<port id="0" precision="FP32">
					<dim>-1</dim>
					<dim>-1</dim>
					<dim>-1</dim>
					<dim>3</dim>
				</port>
				<port id="1" precision="FP32">
					<dim>1</dim>
					<dim>1</dim>
					<dim>1</dim>
					<dim>3</dim>
				</port>
			</input>
			<output>
				<port id="2" precision="FP32">
					<dim>-1</dim>
					<dim>-1</dim>
					<dim>-1</dim>
					<dim>3</dim>
				</port>
			</output>
		</layer>
		<layer id="112" name="Divide_2098/fq_output_0/input_low" type="Const" version="opset1">
			<data element_type="f32" shape="" offset="114" size="4" />
			<output>
				<port id="0" precision="FP32" />
			</output>
		</layer>
		<layer id="113" name="Divide_2098/fq_output_0/input_high" type="Const" version="opset1">
			<data element_type="f32" shape="" offset="118" size="4" />
			<output>
				<port id="0" precision="FP32" />
			</output>
		</layer>
		<layer id="114" name="Divide_2098/fq_output_0/output_low" type="Const" version="opset1">
			<data element_type="f32" shape="" offset="114" size="4" />
			<output>
				<port id="0" precision="FP32" />
			</output>
		</layer>
		<layer id="115" name="Divide_2098/fq_output_0/output_high" type="Const" version="opset1">
			<data element_type="f32" shape="" offset="118" size="4" />
			<output>
				<port id="0" precision="FP32" />
			</output>
		</layer>
		<layer id="116" name="Divide_2098/fq_output_0" type="FakeQuantize" version="opset1">
			<data levels="256" auto_broadcast="numpy" />
			<input>
				<port id="0" precision="FP32">
					<dim>-1</dim>
					<dim>-1</dim>
					<dim>-1</dim>
					<dim>3</dim>
				</port>
				<port id="1" precision="FP32" />
				<port id="2" precision="FP32" />
				<port id="3" precision="FP32" />
				<port id="4" precision="FP32" />
			</input>
			<output>
				<port id="5" precision="FP32">
					<dim>-1</dim>
					<dim>-1</dim>
					<dim>-1</dim>
					<dim>3</dim>
				</port>
			</output>
		</layer>
		<layer id="117" name="Divide_2098/fq_output_0/fq_output_0/input_low" type="Const" version="opset1">
			<data element_type="f32" shape="" offset="122" size="4" />
			<output>
				<port id="0" precision="FP32" />
			</output>
		</layer>
		<layer id="118" name="Divide_2098/fq_output_0/fq_output_0/input_high" type="Const" version="opset1">
			<data element_type="f32" shape="" offset="126" size="4" />
			<output>
				<port id="0" precision="FP32" />
			</output>
		</layer>
		<layer id="119" name="Divide_2098/fq_output_0/fq_output_0/output_low" type="Const" version="opset1">
			<data element_type="f32" shape="" offset="122" size="4" />
			<output>
				<port id="0" precision="FP32" />
			</output>
		</layer>
		<layer id="120" name="Divide_2098/fq_output_0/fq_output_0/output_high" type="Const" version="opset1">
			<data element_type="f32" shape="" offset="126" size="4" />
			<output>
				<port id="0" precision="FP32" />
			</output>
		</layer>
		<layer id="121" name="Divide_2098/fq_output_0/fq_output_0" type="FakeQuantize" version="opset1">
			<data levels="256" auto_broadcast="numpy" />
			<input>
				<port id="0" precision="FP32">
					<dim>-1</dim>
					<dim>-1</dim>
					<dim>-1</dim>
					<dim>3</dim>
				</port>
				<port id="1" precision="FP32" />
				<port id="2" precision="FP32" />
				<port id="3" precision="FP32" />
				<port id="4" precision="FP32" />
			</input>
			<output>
				<port id="5" precision="FP32">
					<dim>-1</dim>
					<dim>-1</dim>
					<dim>-1</dim>
					<dim>3</dim>
				</port>
			</output>
		</layer>
		<layer id="122" name="Constant_2099" type="Const" version="opset1">
			<data element_type="i64" shape="4" offset="130" size="32" />
			<output>
				<port id="0" precision="I64">
					<dim>4</dim>
				</port>
			</output>
		</layer>
		<layer id="123" name="Transpose_2100" type="Transpose" version="opset1">
			<input>
				<port id="0" precision="FP32">
					<dim>-1</dim>
					<dim>-1</dim>
					<dim>-1</dim>
					<dim>3</dim>
				</port>
				<port id="1" precision="I64">
					<dim>4</dim>
				</port>
			</input>
			<output>
				<port id="2" precision="FP32">
					<dim>-1</dim>
					<dim>3</dim>
					<dim>-1</dim>
					<dim>-1</dim>
				</port>
			</output>
		</layer>
		<layer id="124" name="Constant_214441" type="Const" version="opset1">
			<data element_type="i8" shape="16, 3, 3, 3" offset="162" size="432" />
			<output>
				<port id="0" precision="I8">
					<dim>16</dim>
					<dim>3</dim>
					<dim>3</dim>
					<dim>3</dim>
				</port>
			</output>
		</layer>
		<layer id="125" name="Convert_214442" type="Convert" version="opset1">
			<data destination_type="f32" />
			<input>
				<port id="0" precision="I8">
					<dim>16</dim>
					<dim>3</dim>
					<dim>3</dim>
					<dim>3</dim>
				</port>
			</input>
			<output>
				<port id="1" precision="FP32">
					<dim>16</dim>
					<dim>3</dim>
					<dim>3</dim>
					<dim>3</dim>
				</port>
			</output>
		</layer>
		<layer id="126" name="Constant_214443" type="Const" version="opset1">
			<data element_type="f32" shape="16, 1, 1, 1" offset="594" size="64" />
			<output>
				<port id="0" precision="FP32">
					<dim>16</dim>
					<dim>1</dim>
					<dim>1</dim>
					<dim>1</dim>
				</port>
			</output>
		</layer>
		<layer id="127" name="p2o.Conv.0/fq_weights_1" type="Multiply" version="opset1">
			<data auto_broadcast="numpy" />
			<input>
				<port id="0" precision="FP32">
					<dim>16</dim>
					<dim>3</dim>
					<dim>3</dim>
					<dim>3</dim>
				</port>
				<port id="1" precision="FP32">
					<dim>16</dim>
					<dim>1</dim>
					<dim>1</dim>
					<dim>1</dim>
				</port>
			</input>
			<output>
				<port id="2" precision="FP32">
					<dim>16</dim>
					<dim>3</dim>
					<dim>3</dim>
					<dim>3</dim>
				</port>
			</output>
		</layer>
		<layer id="128" name="p2o.Conv.0" type="Convolution" version="opset1">
			<data strides="2, 2" dilations="1, 1" pads_begin="1, 1" pads_end="1, 1" auto_pad="explicit" />
			<input>
				<port id="0" precision="FP32">
					<dim>-1</dim>
					<dim>3</dim>
					<dim>-1</dim>
					<dim>-1</dim>
				</port>
				<port id="1" precision="FP32">
					<dim>16</dim>
					<dim>3</dim>
					<dim>3</dim>
					<dim>3</dim>
				</port>
			</input>
			<output>
				<port id="2" precision="FP32" names="conv2d_450.tmp_0">
					<dim>-1</dim>
					<dim>16</dim>
					<dim>-1</dim>
					<dim>-1</dim>
				</port>
			</output>
		</layer>
		<layer id="129" name="p2o.Conv.0/fq_output_0/input_low" type="Const" version="opset1">
			<data element_type="f32" shape="" offset="658" size="4" />
			<output>
				<port id="0" precision="FP32" />
			</output>
		</layer>
		<layer id="130" name="p2o.Conv.0/fq_output_0/input_high" type="Const" version="opset1">
			<data element_type="f32" shape="" offset="662" size="4" />
			<output>
				<port id="0" precision="FP32" />
			</output>
		</layer>
		<layer id="131" name="p2o.Conv.0/fq_output_0/output_low" type="Const" version="opset1">
			<data element_type="f32" shape="" offset="658" size="4" />
			<output>
				<port id="0" precision="FP32" />
			</output>
		</layer>
		<layer id="132" name="p2o.Conv.0/fq_output_0/output_high" type="Const" version="opset1">
			<data element_type="f32" shape="" offset="662" size="4" />
			<output>
				<port id="0" precision="FP32" />
			</output>
		</layer>
		<layer id="133" name="p2o.Conv.0/fq_output_0" type="FakeQuantize" version="opset1">
			<data levels="256" auto_broadcast="numpy" />
			<input>
				<port id="0" precision="FP32">
					<dim>-1</dim>
					<dim>16</dim>
					<dim>-1</dim>
					<dim>-1</dim>
				</port>
				<port id="1" precision="FP32" />
				<port id="2" precision="FP32" />
				<port id="3" precision="FP32" />
				<port id="4" precision="FP32" />
			</input>
			<output>
				<port id="5" precision="FP32">
					<dim>-1</dim>
					<dim>16</dim>
					<dim>-1</dim>
					<dim>-1</dim>
				</port>
			</output>
		</layer>
		<layer id="134" name="p2o.Conv.0/fq_output_0/fq_output_0/input_low" type="Const" version="opset1">
			<data element_type="f32" shape="" offset="666" size="4" />
			<output>
				<port id="0" precision="FP32" />
			</output>
		</layer>
		<layer id="135" name="p2o.Conv.0/fq_output_0/fq_output_0/input_high" type="Const" version="opset1">
			<data element_type="f32" shape="" offset="670" size="4" />
			<output>
				<port id="0" precision="FP32" />
			</output>
		</layer>
		<layer id="136" name="p2o.Conv.0/fq_output_0/fq_output_0/output_low" type="Const" version="opset1">
			<data element_type="f32" shape="" offset="666" size="4" />
			<output>
				<port id="0" precision="FP32" />
			</output>
		</layer>
		<layer id="137" name="p2o.Conv.0/fq_output_0/fq_output_0/output_high" type="Const" version="opset1">
			<data element_type="f32" shape="" offset="670" size="4" />
			<output>
				<port id="0" precision="FP32" />
			</output>
		</layer>
		<layer id="138" name="p2o.Conv.0/fq_output_0/fq_output_0" type="FakeQuantize" version="opset1">
			<data levels="256" auto_broadcast="numpy" />
			<input>
				<port id="0" precision="FP32">
					<dim>-1</dim>
					<dim>16</dim>
					<dim>-1</dim>
					<dim>-1</dim>
				</port>
				<port id="1" precision="FP32" />
				<port id="2" precision="FP32" />
				<port id="3" precision="FP32" />
				<port id="4" precision="FP32" />
			</input>
			<output>
				<port id="5" precision="FP32">
					<dim>-1</dim>
					<dim>16</dim>
					<dim>-1</dim>
					<dim>-1</dim>
				</port>
			</output>
		</layer>
		<layer id="139" name="batch_norm2d_0.w_0_compressed" type="Const" version="opset1">
			<data element_type="f16" shape="16" offset="674" size="32" />
			<output>
				<port id="0" precision="FP16" names="batch_norm2d_0.w_0">
					<dim>16</dim>
				</port>
			</output>
		</layer>
		<layer id="140" name="batch_norm2d_0.w_0" type="Convert" version="opset1">
			<data destination_type="f32" />
			<rt_info>
				<attribute name="decompression" version="0" />
			</rt_info>
			<input>
				<port id="0" precision="FP16">
					<dim>16</dim>
				</port>
			</input>
			<output>
				<port id="1" precision="FP32">
					<dim>16</dim>
				</port>
			</output>
		</layer>
		<layer id="141" name="batch_norm2d_0.b_0_compressed" type="Const" version="opset1">
			<data element_type="f16" shape="16" offset="706" size="32" />
			<output>
				<port id="0" precision="FP16" names="batch_norm2d_0.b_0">
					<dim>16</dim>
				</port>
			</output>
		</layer>
		<layer id="142" name="batch_norm2d_0.b_0" type="Convert" version="opset1">
			<data destination_type="f32" />
			<rt_info>
				<attribute name="decompression" version="0" />
			</rt_info>
			<input>
				<port id="0" precision="FP16">
					<dim>16</dim>
				</port>
			</input>
			<output>
				<port id="1" precision="FP32">
					<dim>16</dim>
				</port>
			</output>
		</layer>
		<layer id="143" name="batch_norm2d_0.w_1_compressed" type="Const" version="opset1">
			<data element_type="f16" shape="16" offset="738" size="32" />
			<output>
				<port id="0" precision="FP16" names="batch_norm2d_0.w_1">
					<dim>16</dim>
				</port>
			</output>
		</layer>
		<layer id="144" name="batch_norm2d_0.w_1" type="Convert" version="opset1">
			<data destination_type="f32" />
			<rt_info>
				<attribute name="decompression" version="0" />
			</rt_info>
			<input>
				<port id="0" precision="FP16">
					<dim>16</dim>
				</port>
			</input>
			<output>
				<port id="1" precision="FP32">
					<dim>16</dim>
				</port>
			</output>
		</layer>
		<layer id="145" name="batch_norm2d_0.w_2_compressed" type="Const" version="opset1">
			<data element_type="f16" shape="16" offset="770" size="32" />
			<output>
				<port id="0" precision="FP16" names="batch_norm2d_0.w_2">
					<dim>16</dim>
				</port>
			</output>
		</layer>
		<layer id="146" name="batch_norm2d_0.w_2" type="Convert" version="opset1">
			<data destination_type="f32" />
			<rt_info>
				<attribute name="decompression" version="0" />
			</rt_info>
			<input>
				<port id="0" precision="FP16">
					<dim>16</dim>
				</port>
			</input>
			<output>
				<port id="1" precision="FP32">
					<dim>16</dim>
				</port>
			</output>
		</layer>
		<layer id="147" name="p2o.BatchNormalization.0" type="BatchNormInference" version="opset5">
			<data epsilon="9.9999997473787516e-06" />
			<input>
				<port id="0" precision="FP32">
					<dim>-1</dim>
					<dim>16</dim>
					<dim>-1</dim>
					<dim>-1</dim>
				</port>
				<port id="1" precision="FP32">
					<dim>16</dim>
				</port>
				<port id="2" precision="FP32">
					<dim>16</dim>
				</port>
				<port id="3" precision="FP32">
					<dim>16</dim>
				</port>
				<port id="4" precision="FP32">
					<dim>16</dim>
				</port>
			</input>
			<output>
				<port id="5" precision="FP32" names="batch_norm_67.tmp_2">
					<dim>-1</dim>
					<dim>16</dim>
					<dim>-1</dim>
					<dim>-1</dim>
				</port>
			</output>
		</layer>
		<layer id="148" name="p2o.BatchNormalization.0/fq_output_0/input_low" type="Const" version="opset1">
			<data element_type="f32" shape="1, 16, 1, 1" offset="802" size="64" />
			<output>
				<port id="0" precision="FP32">
					<dim>1</dim>
					<dim>16</dim>
					<dim>1</dim>
					<dim>1</dim>
				</port>
			</output>
		</layer>
		<layer id="149" name="p2o.BatchNormalization.0/fq_output_0/input_high" type="Const" version="opset1">
			<data element_type="f32" shape="1, 16, 1, 1" offset="866" size="64" />
			<output>
				<port id="0" precision="FP32">
					<dim>1</dim>
					<dim>16</dim>
					<dim>1</dim>
					<dim>1</dim>
				</port>
			</output>
		</layer>
		<layer id="150" name="p2o.BatchNormalization.0/fq_output_0/output_low" type="Const" version="opset1">
			<data element_type="f32" shape="1, 16, 1, 1" offset="802" size="64" />
			<output>
				<port id="0" precision="FP32">
					<dim>1</dim>
					<dim>16</dim>
					<dim>1</dim>
					<dim>1</dim>
				</port>
			</output>
		</layer>
		<layer id="151" name="p2o.BatchNormalization.0/fq_output_0/output_high" type="Const" version="opset1">
			<data element_type="f32" shape="1, 16, 1, 1" offset="866" size="64" />
			<output>
				<port id="0" precision="FP32">
					<dim>1</dim>
					<dim>16</dim>
					<dim>1</dim>
					<dim>1</dim>
				</port>
			</output>
		</layer>
		<layer id="152" name="p2o.BatchNormalization.0/fq_output_0" type="FakeQuantize" version="opset1">
			<data levels="256" auto_broadcast="numpy" />
			<input>
				<port id="0" precision="FP32">
					<dim>-1</dim>
					<dim>16</dim>
					<dim>-1</dim>
					<dim>-1</dim>
				</port>
				<port id="1" precision="FP32">
					<dim>1</dim>
					<dim>16</dim>
					<dim>1</dim>
					<dim>1</dim>
				</port>
				<port id="2" precision="FP32">
					<dim>1</dim>
					<dim>16</dim>
					<dim>1</dim>
					<dim>1</dim>
				</port>
				<port id="3" precision="FP32">
					<dim>1</dim>
					<dim>16</dim>
					<dim>1</dim>
					<dim>1</dim>
				</port>
				<port id="4" precision="FP32">
					<dim>1</dim>
					<dim>16</dim>
					<dim>1</dim>
					<dim>1</dim>
				</port>
			</input>
			<output>
				<port id="5" precision="FP32">
					<dim>-1</dim>
					<dim>16</dim>
					<dim>-1</dim>
					<dim>-1</dim>
				</port>
			</output>
		</layer>
		<layer id="153" name="p2o.BatchNormalization.0/fq_output_0/fq_output_0/input_low" type="Const" version="opset1">
			<data element_type="f32" shape="1, 16, 1, 1" offset="930" size="64" />
			<output>
				<port id="0" precision="FP32">
					<dim>1</dim>
					<dim>16</dim>
					<dim>1</dim>
					<dim>1</dim>
				</port>
			</output>
		</layer>
		<layer id="154" name="p2o.BatchNormalization.0/fq_output_0/fq_output_0/input_high" type="Const" version="opset1">
			<data element_type="f32" shape="1, 16, 1, 1" offset="994" size="64" />
			<output>
				<port id="0" precision="FP32">
					<dim>1</dim>
					<dim>16</dim>
					<dim>1</dim>
					<dim>1</dim>
				</port>
			</output>
		</layer>
		<layer id="155" name="p2o.BatchNormalization.0/fq_output_0/fq_output_0/output_low" type="Const" version="opset1">
			<data element_type="f32" shape="1, 16, 1, 1" offset="930" size="64" />
			<output>
				<port id="0" precision="FP32">
					<dim>1</dim>
					<dim>16</dim>
					<dim>1</dim>
					<dim>1</dim>
				</port>
			</output>
		</layer>
		<layer id="156" name="p2o.BatchNormalization.0/fq_output_0/fq_output_0/output_high" type="Const" version="opset1">
			<data element_type="f32" shape="1, 16, 1, 1" offset="994" size="64" />
			<output>
				<port id="0" precision="FP32">
					<dim>1</dim>
					<dim>16</dim>
					<dim>1</dim>
					<dim>1</dim>
				</port>
			</output>
		</layer>
		<layer id="157" name="p2o.BatchNormalization.0/fq_output_0/fq_output_0" type="FakeQuantize" version="opset1">
			<data levels="256" auto_broadcast="numpy" />
			<input>
				<port id="0" precision="FP32">
					<dim>-1</dim>
					<dim>16</dim>
					<dim>-1</dim>
					<dim>-1</dim>
				</port>
				<port id="1" precision="FP32">
					<dim>1</dim>
					<dim>16</dim>
					<dim>1</dim>
					<dim>1</dim>
				</port>
				<port id="2" precision="FP32">
					<dim>1</dim>
					<dim>16</dim>
					<dim>1</dim>
					<dim>1</dim>
				</port>
				<port id="3" precision="FP32">
					<dim>1</dim>
					<dim>16</dim>
					<dim>1</dim>
					<dim>1</dim>
				</port>
				<port id="4" precision="FP32">
					<dim>1</dim>
					<dim>16</dim>
					<dim>1</dim>
					<dim>1</dim>
				</port>
			</input>
			<output>
				<port id="5" precision="FP32">
					<dim>-1</dim>
					<dim>16</dim>
					<dim>-1</dim>
					<dim>-1</dim>
				</port>
			</output>
		</layer>
		<layer id="158" name="Constant_214446" type="Const" version="opset1">
			<data element_type="i8" shape="16, 1, 1, 3, 3" offset="1058" size="144" />
			<output>
				<port id="0" precision="I8">
					<dim>16</dim>
					<dim>1</dim>
					<dim>1</dim>
					<dim>3</dim>
					<dim>3</dim>
				</port>
			</output>
		</layer>
		<layer id="159" name="Convert_214447" type="Convert" version="opset1">
			<data destination_type="f32" />
			<input>
				<port id="0" precision="I8">
					<dim>16</dim>
					<dim>1</dim>
					<dim>1</dim>
					<dim>3</dim>
					<dim>3</dim>
				</port>
			</input>
			<output>
				<port id="1" precision="FP32">
					<dim>16</dim>
					<dim>1</dim>
					<dim>1</dim>
					<dim>3</dim>
					<dim>3</dim>
				</port>
			</output>
		</layer>
		<layer id="160" name="Constant_214448" type="Const" version="opset1">
			<data element_type="f32" shape="16, 1, 1, 1, 1" offset="1202" size="64" />
			<output>
				<port id="0" precision="FP32">
					<dim>16</dim>
					<dim>1</dim>
					<dim>1</dim>
					<dim>1</dim>
					<dim>1</dim>
				</port>
			</output>
		</layer>
		<layer id="161" name="p2o.Conv.1/WithoutBiases/fq_weights_1" type="Multiply" version="opset1">
			<data auto_broadcast="numpy" />
			<input>
				<port id="0" precision="FP32">
					<dim>16</dim>
					<dim>1</dim>
					<dim>1</dim>
					<dim>3</dim>
					<dim>3</dim>
				</port>
				<port id="1" precision="FP32">
					<dim>16</dim>
					<dim>1</dim>
					<dim>1</dim>
					<dim>1</dim>
					<dim>1</dim>
				</port>
			</input>
			<output>
				<port id="2" precision="FP32">
					<dim>16</dim>
					<dim>1</dim>
					<dim>1</dim>
					<dim>3</dim>
					<dim>3</dim>
				</port>
			</output>
		</layer>
		<layer id="162" name="p2o.Conv.1/WithoutBiases" type="GroupConvolution" version="opset1">
			<data strides="1, 1" pads_begin="1, 1" pads_end="1, 1" dilations="1, 1" auto_pad="explicit" />
			<input>
				<port id="0" precision="FP32">
					<dim>-1</dim>
					<dim>16</dim>
					<dim>-1</dim>
					<dim>-1</dim>
				</port>
				<port id="1" precision="FP32">
					<dim>16</dim>
					<dim>1</dim>
					<dim>1</dim>
					<dim>3</dim>
					<dim>3</dim>
				</port>
			</input>
			<output>
				<port id="2" precision="FP32">
					<dim>-1</dim>
					<dim>16</dim>
					<dim>-1</dim>
					<dim>-1</dim>
				</port>
			</output>
		</layer>
		<layer id="163" name="Reshape_296_compressed" type="Const" version="opset1">
			<data element_type="f16" shape="1, 16, 1, 1" offset="1266" size="32" />
			<output>
				<port id="0" precision="FP16">
					<dim>1</dim>
					<dim>16</dim>
					<dim>1</dim>
					<dim>1</dim>
				</port>
			</output>
		</layer>
		<layer id="164" name="Reshape_296" type="Convert" version="opset1">
			<data destination_type="f32" />
			<rt_info>
				<attribute name="decompression" version="0" />
			</rt_info>
			<input>
				<port id="0" precision="FP16">
					<dim>1</dim>
					<dim>16</dim>
					<dim>1</dim>
					<dim>1</dim>
				</port>
			</input>
			<output>
				<port id="1" precision="FP32">
					<dim>1</dim>
					<dim>16</dim>
					<dim>1</dim>
					<dim>1</dim>
				</port>
			</output>
		</layer>
		<layer id="165" name="p2o.Conv.1" type="Add" version="opset1">
			<data auto_broadcast="numpy" />
			<input>
				<port id="0" precision="FP32">
					<dim>-1</dim>
					<dim>16</dim>
					<dim>-1</dim>
					<dim>-1</dim>
				</port>
				<port id="1" precision="FP32">
					<dim>1</dim>
					<dim>16</dim>
					<dim>1</dim>
					<dim>1</dim>
				</port>
			</input>
			<output>
				<port id="2" precision="FP32" names="depthwise_conv2d_0.tmp_0">
					<dim>-1</dim>
					<dim>16</dim>
					<dim>-1</dim>
					<dim>-1</dim>
				</port>
			</output>
		</layer>
		<layer id="166" name="p2o.Mul.0" type="Multiply" version="opset1">
			<data auto_broadcast="numpy" />
			<input>
				<port id="0" precision="FP32">
					<dim>1</dim>
				</port>
				<port id="1" precision="FP32">
					<dim>-1</dim>
					<dim>16</dim>
					<dim>-1</dim>
					<dim>-1</dim>
				</port>
			</input>
			<output>
				<port id="2" precision="FP32" names="p2o.Mul.1">
					<dim>-1</dim>
					<dim>16</dim>
					<dim>-1</dim>
					<dim>-1</dim>
				</port>
			</output>
		</layer>
		<layer id="167" name="mobile_one_block_0.w_1_compressed" type="Const" version="opset1">
			<data element_type="f16" shape="1" offset="1298" size="2" />
			<output>
				<port id="0" precision="FP16" names="mobile_one_block_0.w_1">
					<dim>1</dim>
				</port>
			</output>
		</layer>
		<layer id="168" name="mobile_one_block_0.w_1" type="Convert" version="opset1">
			<data destination_type="f32" />
			<rt_info>
				<attribute name="decompression" version="0" />
			</rt_info>
			<input>
				<port id="0" precision="FP16">
					<dim>1</dim>
				</port>
			</input>
			<output>
				<port id="1" precision="FP32">
					<dim>1</dim>
				</port>
			</output>
		</layer>
		<layer id="169" name="p2o.Add.2" type="Add" version="opset1">
			<data auto_broadcast="numpy" />
			<input>
				<port id="0" precision="FP32">
					<dim>-1</dim>
					<dim>16</dim>
					<dim>-1</dim>
					<dim>-1</dim>
				</port>
				<port id="1" precision="FP32">
					<dim>1</dim>
				</port>
			</input>
			<output>
				<port id="2" precision="FP32" names="p2o.Add.3">
					<dim>-1</dim>
					<dim>16</dim>
					<dim>-1</dim>
					<dim>-1</dim>
				</port>
			</output>
		</layer>
		<layer id="170" name="p2o.Add.2/fq_output_0/input_low" type="Const" version="opset1">
			<data element_type="f32" shape="" offset="1300" size="4" />
			<output>
				<port id="0" precision="FP32" />
			</output>
		</layer>
		<layer id="171" name="p2o.Add.2/fq_output_0/input_high" type="Const" version="opset1">
			<data element_type="f32" shape="" offset="1304" size="4" />
			<output>
				<port id="0" precision="FP32" />
			</output>
		</layer>
		<layer id="172" name="p2o.Add.2/fq_output_0/output_low" type="Const" version="opset1">
			<data element_type="f32" shape="" offset="1300" size="4" />
			<output>
				<port id="0" precision="FP32" />
			</output>
		</layer>
		<layer id="173" name="p2o.Add.2/fq_output_0/output_high" type="Const" version="opset1">
			<data element_type="f32" shape="" offset="1304" size="4" />
			<output>
				<port id="0" precision="FP32" />
			</output>
		</layer>
		<layer id="174" name="p2o.Add.2/fq_output_0" type="FakeQuantize" version="opset1">
			<data levels="256" auto_broadcast="numpy" />
			<input>
				<port id="0" precision="FP32">
					<dim>-1</dim>
					<dim>16</dim>
					<dim>-1</dim>
					<dim>-1</dim>
				</port>
				<port id="1" precision="FP32" />
				<port id="2" precision="FP32" />
				<port id="3" precision="FP32" />
				<port id="4" precision="FP32" />
			</input>
			<output>
				<port id="5" precision="FP32">
					<dim>-1</dim>
					<dim>16</dim>
					<dim>-1</dim>
					<dim>-1</dim>
				</port>
			</output>
		</layer>
		<layer id="175" name="p2o.Add.2/fq_output_0/fq_output_0/input_low" type="Const" version="opset1">
			<data element_type="f32" shape="" offset="1308" size="4" />
			<output>
				<port id="0" precision="FP32" />
			</output>
		</layer>
		<layer id="176" name="p2o.Add.2/fq_output_0/fq_output_0/input_high" type="Const" version="opset1">
			<data element_type="f32" shape="" offset="1312" size="4" />
			<output>
				<port id="0" precision="FP32" />
			</output>
		</layer>
		<layer id="177" name="p2o.Add.2/fq_output_0/fq_output_0/output_low" type="Const" version="opset1">
			<data element_type="f32" shape="" offset="1308" size="4" />
			<output>
				<port id="0" precision="FP32" />
			</output>
		</layer>
		<layer id="178" name="p2o.Add.2/fq_output_0/fq_output_0/output_high" type="Const" version="opset1">
			<data element_type="f32" shape="" offset="1312" size="4" />
			<output>
				<port id="0" precision="FP32" />
			</output>
		</layer>
		<layer id="179" name="p2o.Add.2/fq_output_0/fq_output_0" type="FakeQuantize" version="opset1">
			<data levels="256" auto_broadcast="numpy" />
			<input>
				<port id="0" precision="FP32">
					<dim>-1</dim>
					<dim>16</dim>
					<dim>-1</dim>
					<dim>-1</dim>
				</port>
				<port id="1" precision="FP32" />
				<port id="2" precision="FP32" />
				<port id="3" precision="FP32" />
				<port id="4" precision="FP32" />
			</input>
			<output>
				<port id="5" precision="FP32">
					<dim>-1</dim>
					<dim>16</dim>
					<dim>-1</dim>
					<dim>-1</dim>
				</port>
			</output>
		</layer>
		<layer id="180" name="p2o.helper.constant.4_compressed" type="Const" version="opset1">
			<data element_type="f16" shape="" offset="1316" size="2" />
			<output>
				<port id="0" precision="FP16" names="p2o.helper.constant.4" />
			</output>
		</layer>
		<layer id="181" name="p2o.helper.constant.4" type="Convert" version="opset1">
			<data destination_type="f32" />
			<rt_info>
				<attribute name="decompression" version="0" />
			</rt_info>
			<input>
				<port id="0" precision="FP16" />
			</input>
			<output>
				<port id="1" precision="FP32" />
			</output>
		</layer>
		<layer id="182" name="p2o.helper.constant.3_compressed" type="Const" version="opset1">
			<data element_type="f16" shape="" offset="1318" size="2" />
			<output>
				<port id="0" precision="FP16" names="p2o.helper.constant.3" />
			</output>
		</layer>
		<layer id="183" name="p2o.helper.constant.3" type="Convert" version="opset1">
			<data destination_type="f32" />
			<rt_info>
				<attribute name="decompression" version="0" />
			</rt_info>
			<input>
				<port id="0" precision="FP16" />
			</input>
			<output>
				<port id="1" precision="FP32" />
			</output>
		</layer>
		<layer id="184" name="p2o.helper.constant.2_compressed" type="Const" version="opset1">
			<data element_type="f16" shape="" offset="1320" size="2" />
			<output>
				<port id="0" precision="FP16" names="p2o.helper.constant.2" />
			</output>
		</layer>
		<layer id="185" name="p2o.helper.constant.2" type="Convert" version="opset1">
			<data destination_type="f32" />
			<rt_info>
				<attribute name="decompression" version="0" />
			</rt_info>
			<input>
				<port id="0" precision="FP16" />
			</input>
			<output>
				<port id="1" precision="FP32" />
			</output>
		</layer>
		<layer id="186" name="p2o.Add.4" type="Add" version="opset1">
			<data auto_broadcast="numpy" />
			<input>
				<port id="0" precision="FP32">
					<dim>-1</dim>
					<dim>16</dim>
					<dim>-1</dim>
					<dim>-1</dim>
				</port>
				<port id="1" precision="FP32" />
			</input>
			<output>
				<port id="2" precision="FP32" names="p2o.Add.5">
					<dim>-1</dim>
					<dim>16</dim>
					<dim>-1</dim>
					<dim>-1</dim>
				</port>
			</output>
		</layer>
		<layer id="187" name="Maximum_305" type="Maximum" version="opset1">
			<data auto_broadcast="numpy" />
			<input>
				<port id="0" precision="FP32" />
				<port id="1" precision="FP32">
					<dim>-1</dim>
					<dim>16</dim>
					<dim>-1</dim>
					<dim>-1</dim>
				</port>
			</input>
			<output>
				<port id="2" precision="FP32">
					<dim>-1</dim>
					<dim>16</dim>
					<dim>-1</dim>
					<dim>-1</dim>
				</port>
			</output>
		</layer>
		<layer id="188" name="p2o.Clip.0" type="Minimum" version="opset1">
			<data auto_broadcast="numpy" />
			<input>
				<port id="0" precision="FP32" />
				<port id="1" precision="FP32">
					<dim>-1</dim>
					<dim>16</dim>
					<dim>-1</dim>
					<dim>-1</dim>
				</port>
			</input>
			<output>
				<port id="2" precision="FP32" names="p2o.Clip.1">
					<dim>-1</dim>
					<dim>16</dim>
					<dim>-1</dim>
					<dim>-1</dim>
				</port>
			</output>
		</layer>
		<layer id="189" name="p2o.Clip.0/fq_output_0/input_low" type="Const" version="opset1">
			<data element_type="f32" shape="" offset="1322" size="4" />
			<output>
				<port id="0" precision="FP32" />
			</output>
		</layer>
		<layer id="190" name="p2o.Clip.0/fq_output_0/input_high" type="Const" version="opset1">
			<data element_type="f32" shape="" offset="1326" size="4" />
			<output>
				<port id="0" precision="FP32" />
			</output>
		</layer>
		<layer id="191" name="p2o.Clip.0/fq_output_0/output_low" type="Const" version="opset1">
			<data element_type="f32" shape="" offset="1322" size="4" />
			<output>
				<port id="0" precision="FP32" />
			</output>
		</layer>
		<layer id="192" name="p2o.Clip.0/fq_output_0/output_high" type="Const" version="opset1">
			<data element_type="f32" shape="" offset="1326" size="4" />
			<output>
				<port id="0" precision="FP32" />
			</output>
		</layer>
		<layer id="193" name="p2o.Clip.0/fq_output_0" type="FakeQuantize" version="opset1">
			<data levels="256" auto_broadcast="numpy" />
			<input>
				<port id="0" precision="FP32">
					<dim>-1</dim>
					<dim>16</dim>
					<dim>-1</dim>
					<dim>-1</dim>
				</port>
				<port id="1" precision="FP32" />
				<port id="2" precision="FP32" />
				<port id="3" precision="FP32" />
				<port id="4" precision="FP32" />
			</input>
			<output>
				<port id="5" precision="FP32">
					<dim>-1</dim>
					<dim>16</dim>
					<dim>-1</dim>
					<dim>-1</dim>
				</port>
			</output>
		</layer>
		<layer id="194" name="p2o.Clip.0/fq_output_0/fq_output_0/input_low" type="Const" version="opset1">
			<data element_type="f32" shape="" offset="1322" size="4" />
			<output>
				<port id="0" precision="FP32" />
			</output>
		</layer>
		<layer id="195" name="p2o.Clip.0/fq_output_0/fq_output_0/input_high" type="Const" version="opset1">
			<data element_type="f32" shape="" offset="1330" size="4" />
			<output>
				<port id="0" precision="FP32" />
			</output>
		</layer>
		<layer id="196" name="p2o.Clip.0/fq_output_0/fq_output_0/output_low" type="Const" version="opset1">
			<data element_type="f32" shape="" offset="1322" size="4" />
			<output>
				<port id="0" precision="FP32" />
			</output>
		</layer>
		<layer id="197" name="p2o.Clip.0/fq_output_0/fq_output_0/output_high" type="Const" version="opset1">
			<data element_type="f32" shape="" offset="1330" size="4" />
			<output>
				<port id="0" precision="FP32" />
			</output>
		</layer>
		<layer id="198" name="p2o.Clip.0/fq_output_0/fq_output_0" type="FakeQuantize" version="opset1">
			<data levels="256" auto_broadcast="numpy" />
			<input>
				<port id="0" precision="FP32">
					<dim>-1</dim>
					<dim>16</dim>
					<dim>-1</dim>
					<dim>-1</dim>
				</port>
				<port id="1" precision="FP32" />
				<port id="2" precision="FP32" />
				<port id="3" precision="FP32" />
				<port id="4" precision="FP32" />
			</input>
			<output>
				<port id="5" precision="FP32">
					<dim>-1</dim>
					<dim>16</dim>
					<dim>-1</dim>
					<dim>-1</dim>
				</port>
			</output>
		</layer>
		<layer id="199" name="p2o.Mul.2" type="Multiply" version="opset1">
			<data auto_broadcast="numpy" />
			<input>
				<port id="0" precision="FP32">
					<dim>-1</dim>
					<dim>16</dim>
					<dim>-1</dim>
					<dim>-1</dim>
				</port>
				<port id="1" precision="FP32">
					<dim>-1</dim>
					<dim>16</dim>
					<dim>-1</dim>
					<dim>-1</dim>
				</port>
			</input>
			<output>
				<port id="2" precision="FP32" names="p2o.Mul.3">
					<dim>-1</dim>
					<dim>16</dim>
					<dim>-1</dim>
					<dim>-1</dim>
				</port>
			</output>
		</layer>
		<layer id="200" name="Constant_2961_compressed" type="Const" version="opset1">
			<data element_type="f16" shape="" offset="1334" size="2" />
			<output>
				<port id="0" precision="FP16" />
			</output>
		</layer>
		<layer id="201" name="Constant_2961" type="Convert" version="opset1">
			<data destination_type="f32" />
			<rt_info>
				<attribute name="decompression" version="0" />
			</rt_info>
			<input>
				<port id="0" precision="FP16" />
			</input>
			<output>
				<port id="1" precision="FP32" />
			</output>
		</layer>
		<layer id="202" name="p2o.Div.0" type="Multiply" version="opset1">
			<data auto_broadcast="numpy" />
			<input>
				<port id="0" precision="FP32">
					<dim>-1</dim>
					<dim>16</dim>
					<dim>-1</dim>
					<dim>-1</dim>
				</port>
				<port id="1" precision="FP32" />
			</input>
			<output>
				<port id="2" precision="FP32" names="hardswish_58.tmp_0">
					<dim>-1</dim>
					<dim>16</dim>
					<dim>-1</dim>
					<dim>-1</dim>
				</port>
			</output>
		</layer>
		<layer id="203" name="p2o.Mul.4" type="Multiply" version="opset1">
			<data auto_broadcast="numpy" />
			<input>
				<port id="0" precision="FP32">
					<dim>1</dim>
				</port>
				<port id="1" precision="FP32">
					<dim>-1</dim>
					<dim>16</dim>
					<dim>-1</dim>
					<dim>-1</dim>
				</port>
			</input>
			<output>
				<port id="2" precision="FP32" names="p2o.Mul.5">
					<dim>-1</dim>
					<dim>16</dim>
					<dim>-1</dim>
					<dim>-1</dim>
				</port>
			</output>
		</layer>
		<layer id="204" name="whswish_b_1.w_1_compressed" type="Const" version="opset1">
			<data element_type="f16" shape="1" offset="1336" size="2" />
			<output>
				<port id="0" precision="FP16" names="whswish_b_1.w_1">
					<dim>1</dim>
				</port>
			</output>
		</layer>
		<layer id="205" name="whswish_b_1.w_1" type="Convert" version="opset1">
			<data destination_type="f32" />
			<rt_info>
				<attribute name="decompression" version="0" />
			</rt_info>
			<input>
				<port id="0" precision="FP16">
					<dim>1</dim>
				</port>
			</input>
			<output>
				<port id="1" precision="FP32">
					<dim>1</dim>
				</port>
			</output>
		</layer>
		<layer id="206" name="p2o.Add.6" type="Add" version="opset1">
			<data auto_broadcast="numpy" />
			<input>
				<port id="0" precision="FP32">
					<dim>-1</dim>
					<dim>16</dim>
					<dim>-1</dim>
					<dim>-1</dim>
				</port>
				<port id="1" precision="FP32">
					<dim>1</dim>
				</port>
			</input>
			<output>
				<port id="2" precision="FP32" names="p2o.Add.7">
					<dim>-1</dim>
					<dim>16</dim>
					<dim>-1</dim>
					<dim>-1</dim>
				</port>
			</output>
		</layer>
		<layer id="207" name="p2o.Add.6/fq_output_0/input_low" type="Const" version="opset1">
			<data element_type="f32" shape="" offset="1338" size="4" />
			<output>
				<port id="0" precision="FP32" />
			</output>
		</layer>
		<layer id="208" name="p2o.Add.6/fq_output_0/input_high" type="Const" version="opset1">
			<data element_type="f32" shape="" offset="1342" size="4" />
			<output>
				<port id="0" precision="FP32" />
			</output>
		</layer>
		<layer id="209" name="p2o.Add.6/fq_output_0/output_low" type="Const" version="opset1">
			<data element_type="f32" shape="" offset="1338" size="4" />
			<output>
				<port id="0" precision="FP32" />
			</output>
		</layer>
		<layer id="210" name="p2o.Add.6/fq_output_0/output_high" type="Const" version="opset1">
			<data element_type="f32" shape="" offset="1342" size="4" />
			<output>
				<port id="0" precision="FP32" />
			</output>
		</layer>
		<layer id="211" name="p2o.Add.6/fq_output_0" type="FakeQuantize" version="opset1">
			<data levels="256" auto_broadcast="numpy" />
			<input>
				<port id="0" precision="FP32">
					<dim>-1</dim>
					<dim>16</dim>
					<dim>-1</dim>
					<dim>-1</dim>
				</port>
				<port id="1" precision="FP32" />
				<port id="2" precision="FP32" />
				<port id="3" precision="FP32" />
				<port id="4" precision="FP32" />
			</input>
			<output>
				<port id="5" precision="FP32">
					<dim>-1</dim>
					<dim>16</dim>
					<dim>-1</dim>
					<dim>-1</dim>
				</port>
			</output>
		</layer>
		<layer id="212" name="p2o.Add.6/fq_output_0/fq_output_0/input_low" type="Const" version="opset1">
			<data element_type="f32" shape="" offset="1338" size="4" />
			<output>
				<port id="0" precision="FP32" />
			</output>
		</layer>
		<layer id="213" name="p2o.Add.6/fq_output_0/fq_output_0/input_high" type="Const" version="opset1">
			<data element_type="f32" shape="" offset="1342" size="4" />
			<output>
				<port id="0" precision="FP32" />
			</output>
		</layer>
		<layer id="214" name="p2o.Add.6/fq_output_0/fq_output_0/output_low" type="Const" version="opset1">
			<data element_type="f32" shape="" offset="1338" size="4" />
			<output>
				<port id="0" precision="FP32" />
			</output>
		</layer>
		<layer id="215" name="p2o.Add.6/fq_output_0/fq_output_0/output_high" type="Const" version="opset1">
			<data element_type="f32" shape="" offset="1342" size="4" />
			<output>
				<port id="0" precision="FP32" />
			</output>
		</layer>
		<layer id="216" name="p2o.Add.6/fq_output_0/fq_output_0" type="FakeQuantize" version="opset1">
			<data levels="256" auto_broadcast="numpy" />
			<input>
				<port id="0" precision="FP32">
					<dim>-1</dim>
					<dim>16</dim>
					<dim>-1</dim>
					<dim>-1</dim>
				</port>
				<port id="1" precision="FP32" />
				<port id="2" precision="FP32" />
				<port id="3" precision="FP32" />
				<port id="4" precision="FP32" />
			</input>
			<output>
				<port id="5" precision="FP32">
					<dim>-1</dim>
					<dim>16</dim>
					<dim>-1</dim>
					<dim>-1</dim>
				</port>
			</output>
		</layer>
		<layer id="217" name="Constant_214451" type="Const" version="opset1">
			<data element_type="i8" shape="32, 16, 1, 1" offset="1346" size="512" />
			<output>
				<port id="0" precision="I8">
					<dim>32</dim>
					<dim>16</dim>
					<dim>1</dim>
					<dim>1</dim>
				</port>
			</output>
		</layer>
		<layer id="218" name="Convert_214452" type="Convert" version="opset1">
			<data destination_type="f32" />
			<input>
				<port id="0" precision="I8">
					<dim>32</dim>
					<dim>16</dim>
					<dim>1</dim>
					<dim>1</dim>
				</port>
			</input>
			<output>
				<port id="1" precision="FP32">
					<dim>32</dim>
					<dim>16</dim>
					<dim>1</dim>
					<dim>1</dim>
				</port>
			</output>
		</layer>
		<layer id="219" name="Constant_214453" type="Const" version="opset1">
			<data element_type="f32" shape="32, 1, 1, 1" offset="1858" size="128" />
			<output>
				<port id="0" precision="FP32">
					<dim>32</dim>
					<dim>1</dim>
					<dim>1</dim>
					<dim>1</dim>
				</port>
			</output>
		</layer>
		<layer id="220" name="p2o.Conv.2/WithoutBiases/fq_weights_1" type="Multiply" version="opset1">
			<data auto_broadcast="numpy" />
			<input>
				<port id="0" precision="FP32">
					<dim>32</dim>
					<dim>16</dim>
					<dim>1</dim>
					<dim>1</dim>
				</port>
				<port id="1" precision="FP32">
					<dim>32</dim>
					<dim>1</dim>
					<dim>1</dim>
					<dim>1</dim>
				</port>
			</input>
			<output>
				<port id="2" precision="FP32">
					<dim>32</dim>
					<dim>16</dim>
					<dim>1</dim>
					<dim>1</dim>
				</port>
			</output>
		</layer>
		<layer id="221" name="p2o.Conv.2/WithoutBiases" type="Convolution" version="opset1">
			<data strides="1, 1" dilations="1, 1" pads_begin="0, 0" pads_end="0, 0" auto_pad="explicit" />
			<input>
				<port id="0" precision="FP32">
					<dim>-1</dim>
					<dim>16</dim>
					<dim>-1</dim>
					<dim>-1</dim>
				</port>
				<port id="1" precision="FP32">
					<dim>32</dim>
					<dim>16</dim>
					<dim>1</dim>
					<dim>1</dim>
				</port>
			</input>
			<output>
				<port id="2" precision="FP32">
					<dim>-1</dim>
					<dim>32</dim>
					<dim>-1</dim>
					<dim>-1</dim>
				</port>
			</output>
		</layer>
		<layer id="222" name="Reshape_322_compressed" type="Const" version="opset1">
			<data element_type="f16" shape="1, 32, 1, 1" offset="1986" size="64" />
			<output>
				<port id="0" precision="FP16">
					<dim>1</dim>
					<dim>32</dim>
					<dim>1</dim>
					<dim>1</dim>
				</port>
			</output>
		</layer>
		<layer id="223" name="Reshape_322" type="Convert" version="opset1">
			<data destination_type="f32" />
			<rt_info>
				<attribute name="decompression" version="0" />
			</rt_info>
			<input>
				<port id="0" precision="FP16">
					<dim>1</dim>
					<dim>32</dim>
					<dim>1</dim>
					<dim>1</dim>
				</port>
			</input>
			<output>
				<port id="1" precision="FP32">
					<dim>1</dim>
					<dim>32</dim>
					<dim>1</dim>
					<dim>1</dim>
				</port>
			</output>
		</layer>
		<layer id="224" name="p2o.Conv.2" type="Add" version="opset1">
			<data auto_broadcast="numpy" />
			<input>
				<port id="0" precision="FP32">
					<dim>-1</dim>
					<dim>32</dim>
					<dim>-1</dim>
					<dim>-1</dim>
				</port>
				<port id="1" precision="FP32">
					<dim>1</dim>
					<dim>32</dim>
					<dim>1</dim>
					<dim>1</dim>
				</port>
			</input>
			<output>
				<port id="2" precision="FP32" names="conv2d_451.tmp_0">
					<dim>-1</dim>
					<dim>32</dim>
					<dim>-1</dim>
					<dim>-1</dim>
				</port>
			</output>
		</layer>
		<layer id="225" name="p2o.Mul.6" type="Multiply" version="opset1">
			<data auto_broadcast="numpy" />
			<input>
				<port id="0" precision="FP32">
					<dim>1</dim>
				</port>
				<port id="1" precision="FP32">
					<dim>-1</dim>
					<dim>32</dim>
					<dim>-1</dim>
					<dim>-1</dim>
				</port>
			</input>
			<output>
				<port id="2" precision="FP32" names="p2o.Mul.7">
					<dim>-1</dim>
					<dim>32</dim>
					<dim>-1</dim>
					<dim>-1</dim>
				</port>
			</output>
		</layer>
		<layer id="226" name="mobile_one_block_1.w_1_compressed" type="Const" version="opset1">
			<data element_type="f16" shape="1" offset="2050" size="2" />
			<output>
				<port id="0" precision="FP16" names="mobile_one_block_1.w_1">
					<dim>1</dim>
				</port>
			</output>
		</layer>
		<layer id="227" name="mobile_one_block_1.w_1" type="Convert" version="opset1">
			<data destination_type="f32" />
			<rt_info>
				<attribute name="decompression" version="0" />
			</rt_info>
			<input>
				<port id="0" precision="FP16">
					<dim>1</dim>
				</port>
			</input>
			<output>
				<port id="1" precision="FP32">
					<dim>1</dim>
				</port>
			</output>
		</layer>
		<layer id="228" name="p2o.Add.10" type="Add" version="opset1">
			<data auto_broadcast="numpy" />
			<input>
				<port id="0" precision="FP32">
					<dim>-1</dim>
					<dim>32</dim>
					<dim>-1</dim>
					<dim>-1</dim>
				</port>
				<port id="1" precision="FP32">
					<dim>1</dim>
				</port>
			</input>
			<output>
				<port id="2" precision="FP32" names="p2o.Add.11">
					<dim>-1</dim>
					<dim>32</dim>
					<dim>-1</dim>
					<dim>-1</dim>
				</port>
			</output>
		</layer>
		<layer id="229" name="p2o.Add.10/fq_output_0/input_low" type="Const" version="opset1">
			<data element_type="f32" shape="" offset="2052" size="4" />
			<output>
				<port id="0" precision="FP32" />
			</output>
		</layer>
		<layer id="230" name="p2o.Add.10/fq_output_0/input_high" type="Const" version="opset1">
			<data element_type="f32" shape="" offset="2056" size="4" />
			<output>
				<port id="0" precision="FP32" />
			</output>
		</layer>
		<layer id="231" name="p2o.Add.10/fq_output_0/output_low" type="Const" version="opset1">
			<data element_type="f32" shape="" offset="2052" size="4" />
			<output>
				<port id="0" precision="FP32" />
			</output>
		</layer>
		<layer id="232" name="p2o.Add.10/fq_output_0/output_high" type="Const" version="opset1">
			<data element_type="f32" shape="" offset="2056" size="4" />
			<output>
				<port id="0" precision="FP32" />
			</output>
		</layer>
		<layer id="233" name="p2o.Add.10/fq_output_0" type="FakeQuantize" version="opset1">
			<data levels="256" auto_broadcast="numpy" />
			<input>
				<port id="0" precision="FP32">
					<dim>-1</dim>
					<dim>32</dim>
					<dim>-1</dim>
					<dim>-1</dim>
				</port>
				<port id="1" precision="FP32" />
				<port id="2" precision="FP32" />
				<port id="3" precision="FP32" />
				<port id="4" precision="FP32" />
			</input>
			<output>
				<port id="5" precision="FP32">
					<dim>-1</dim>
					<dim>32</dim>
					<dim>-1</dim>
					<dim>-1</dim>
				</port>
			</output>
		</layer>
		<layer id="234" name="p2o.Add.10/fq_output_0/fq_output_0/input_low" type="Const" version="opset1">
			<data element_type="f32" shape="" offset="2060" size="4" />
			<output>
				<port id="0" precision="FP32" />
			</output>
		</layer>
		<layer id="235" name="p2o.Add.10/fq_output_0/fq_output_0/input_high" type="Const" version="opset1">
			<data element_type="f32" shape="" offset="2064" size="4" />
			<output>
				<port id="0" precision="FP32" />
			</output>
		</layer>
		<layer id="236" name="p2o.Add.10/fq_output_0/fq_output_0/output_low" type="Const" version="opset1">
			<data element_type="f32" shape="" offset="2060" size="4" />
			<output>
				<port id="0" precision="FP32" />
			</output>
		</layer>
		<layer id="237" name="p2o.Add.10/fq_output_0/fq_output_0/output_high" type="Const" version="opset1">
			<data element_type="f32" shape="" offset="2064" size="4" />
			<output>
				<port id="0" precision="FP32" />
			</output>
		</layer>
		<layer id="238" name="p2o.Add.10/fq_output_0/fq_output_0" type="FakeQuantize" version="opset1">
			<data levels="256" auto_broadcast="numpy" />
			<input>
				<port id="0" precision="FP32">
					<dim>-1</dim>
					<dim>32</dim>
					<dim>-1</dim>
					<dim>-1</dim>
				</port>
				<port id="1" precision="FP32" />
				<port id="2" precision="FP32" />
				<port id="3" precision="FP32" />
				<port id="4" precision="FP32" />
			</input>
			<output>
				<port id="5" precision="FP32">
					<dim>-1</dim>
					<dim>32</dim>
					<dim>-1</dim>
					<dim>-1</dim>
				</port>
			</output>
		</layer>
		<layer id="239" name="p2o.helper.constant.9_compressed" type="Const" version="opset1">
			<data element_type="f16" shape="" offset="1316" size="2" />
			<output>
				<port id="0" precision="FP16" names="p2o.helper.constant.9" />
			</output>
		</layer>
		<layer id="240" name="p2o.helper.constant.9" type="Convert" version="opset1">
			<data destination_type="f32" />
			<rt_info>
				<attribute name="decompression" version="0" />
			</rt_info>
			<input>
				<port id="0" precision="FP16" />
			</input>
			<output>
				<port id="1" precision="FP32" />
			</output>
		</layer>
		<layer id="241" name="p2o.helper.constant.8_compressed" type="Const" version="opset1">
			<data element_type="f16" shape="" offset="1318" size="2" />
			<output>
				<port id="0" precision="FP16" names="p2o.helper.constant.8" />
			</output>
		</layer>
		<layer id="242" name="p2o.helper.constant.8" type="Convert" version="opset1">
			<data destination_type="f32" />
			<rt_info>
				<attribute name="decompression" version="0" />
			</rt_info>
			<input>
				<port id="0" precision="FP16" />
			</input>
			<output>
				<port id="1" precision="FP32" />
			</output>
		</layer>
		<layer id="243" name="p2o.helper.constant.7_compressed" type="Const" version="opset1">
			<data element_type="f16" shape="" offset="1320" size="2" />
			<output>
				<port id="0" precision="FP16" names="p2o.helper.constant.7" />
			</output>
		</layer>
		<layer id="244" name="p2o.helper.constant.7" type="Convert" version="opset1">
			<data destination_type="f32" />
			<rt_info>
				<attribute name="decompression" version="0" />
			</rt_info>
			<input>
				<port id="0" precision="FP16" />
			</input>
			<output>
				<port id="1" precision="FP32" />
			</output>
		</layer>
		<layer id="245" name="p2o.Add.12" type="Add" version="opset1">
			<data auto_broadcast="numpy" />
			<input>
				<port id="0" precision="FP32">
					<dim>-1</dim>
					<dim>32</dim>
					<dim>-1</dim>
					<dim>-1</dim>
				</port>
				<port id="1" precision="FP32" />
			</input>
			<output>
				<port id="2" precision="FP32" names="p2o.Add.13">
					<dim>-1</dim>
					<dim>32</dim>
					<dim>-1</dim>
					<dim>-1</dim>
				</port>
			</output>
		</layer>
		<layer id="246" name="Maximum_331" type="Maximum" version="opset1">
			<data auto_broadcast="numpy" />
			<input>
				<port id="0" precision="FP32" />
				<port id="1" precision="FP32">
					<dim>-1</dim>
					<dim>32</dim>
					<dim>-1</dim>
					<dim>-1</dim>
				</port>
			</input>
			<output>
				<port id="2" precision="FP32">
					<dim>-1</dim>
					<dim>32</dim>
					<dim>-1</dim>
					<dim>-1</dim>
				</port>
			</output>
		</layer>
		<layer id="247" name="p2o.Clip.2" type="Minimum" version="opset1">
			<data auto_broadcast="numpy" />
			<input>
				<port id="0" precision="FP32" />
				<port id="1" precision="FP32">
					<dim>-1</dim>
					<dim>32</dim>
					<dim>-1</dim>
					<dim>-1</dim>
				</port>
			</input>
			<output>
				<port id="2" precision="FP32" names="p2o.Clip.3">
					<dim>-1</dim>
					<dim>32</dim>
					<dim>-1</dim>
					<dim>-1</dim>
				</port>
			</output>
		</layer>
		<layer id="248" name="p2o.Clip.2/fq_output_0/input_low" type="Const" version="opset1">
			<data element_type="f32" shape="" offset="1322" size="4" />
			<output>
				<port id="0" precision="FP32" />
			</output>
		</layer>
		<layer id="249" name="p2o.Clip.2/fq_output_0/input_high" type="Const" version="opset1">
			<data element_type="f32" shape="" offset="1326" size="4" />
			<output>
				<port id="0" precision="FP32" />
			</output>
		</layer>
		<layer id="250" name="p2o.Clip.2/fq_output_0/output_low" type="Const" version="opset1">
			<data element_type="f32" shape="" offset="1322" size="4" />
			<output>
				<port id="0" precision="FP32" />
			</output>
		</layer>
		<layer id="251" name="p2o.Clip.2/fq_output_0/output_high" type="Const" version="opset1">
			<data element_type="f32" shape="" offset="1326" size="4" />
			<output>
				<port id="0" precision="FP32" />
			</output>
		</layer>
		<layer id="252" name="p2o.Clip.2/fq_output_0" type="FakeQuantize" version="opset1">
			<data levels="256" auto_broadcast="numpy" />
			<input>
				<port id="0" precision="FP32">
					<dim>-1</dim>
					<dim>32</dim>
					<dim>-1</dim>
					<dim>-1</dim>
				</port>
				<port id="1" precision="FP32" />
				<port id="2" precision="FP32" />
				<port id="3" precision="FP32" />
				<port id="4" precision="FP32" />
			</input>
			<output>
				<port id="5" precision="FP32">
					<dim>-1</dim>
					<dim>32</dim>
					<dim>-1</dim>
					<dim>-1</dim>
				</port>
			</output>
		</layer>
		<layer id="253" name="p2o.Clip.2/fq_output_0/fq_output_0/input_low" type="Const" version="opset1">
			<data element_type="f32" shape="" offset="1322" size="4" />
			<output>
				<port id="0" precision="FP32" />
			</output>
		</layer>
		<layer id="254" name="p2o.Clip.2/fq_output_0/fq_output_0/input_high" type="Const" version="opset1">
			<data element_type="f32" shape="" offset="2068" size="4" />
			<output>
				<port id="0" precision="FP32" />
			</output>
		</layer>
		<layer id="255" name="p2o.Clip.2/fq_output_0/fq_output_0/output_low" type="Const" version="opset1">
			<data element_type="f32" shape="" offset="1322" size="4" />
			<output>
				<port id="0" precision="FP32" />
			</output>
		</layer>
		<layer id="256" name="p2o.Clip.2/fq_output_0/fq_output_0/output_high" type="Const" version="opset1">
			<data element_type="f32" shape="" offset="2068" size="4" />
			<output>
				<port id="0" precision="FP32" />
			</output>
		</layer>
		<layer id="257" name="p2o.Clip.2/fq_output_0/fq_output_0" type="FakeQuantize" version="opset1">
			<data levels="256" auto_broadcast="numpy" />
			<input>
				<port id="0" precision="FP32">
					<dim>-1</dim>
					<dim>32</dim>
					<dim>-1</dim>
					<dim>-1</dim>
				</port>
				<port id="1" precision="FP32" />
				<port id="2" precision="FP32" />
				<port id="3" precision="FP32" />
				<port id="4" precision="FP32" />
			</input>
			<output>
				<port id="5" precision="FP32">
					<dim>-1</dim>
					<dim>32</dim>
					<dim>-1</dim>
					<dim>-1</dim>
				</port>
			</output>
		</layer>
		<layer id="258" name="p2o.Mul.8" type="Multiply" version="opset1">
			<data auto_broadcast="numpy" />
			<input>
				<port id="0" precision="FP32">
					<dim>-1</dim>
					<dim>32</dim>
					<dim>-1</dim>
					<dim>-1</dim>
				</port>
				<port id="1" precision="FP32">
					<dim>-1</dim>
					<dim>32</dim>
					<dim>-1</dim>
					<dim>-1</dim>
				</port>
			</input>
			<output>
				<port id="2" precision="FP32" names="p2o.Mul.9">
					<dim>-1</dim>
					<dim>32</dim>
					<dim>-1</dim>
					<dim>-1</dim>
				</port>
			</output>
		</layer>
		<layer id="259" name="Constant_2965_compressed" type="Const" version="opset1">
			<data element_type="f16" shape="" offset="1334" size="2" />
			<output>
				<port id="0" precision="FP16" />
			</output>
		</layer>
		<layer id="260" name="Constant_2965" type="Convert" version="opset1">
			<data destination_type="f32" />
			<rt_info>
				<attribute name="decompression" version="0" />
			</rt_info>
			<input>
				<port id="0" precision="FP16" />
			</input>
			<output>
				<port id="1" precision="FP32" />
			</output>
		</layer>
		<layer id="261" name="p2o.Div.1" type="Multiply" version="opset1">
			<data auto_broadcast="numpy" />
			<input>
				<port id="0" precision="FP32">
					<dim>-1</dim>
					<dim>32</dim>
					<dim>-1</dim>
					<dim>-1</dim>
				</port>
				<port id="1" precision="FP32" />
			</input>
			<output>
				<port id="2" precision="FP32" names="hardswish_59.tmp_0">
					<dim>-1</dim>
					<dim>32</dim>
					<dim>-1</dim>
					<dim>-1</dim>
				</port>
			</output>
		</layer>
		<layer id="262" name="p2o.Mul.10" type="Multiply" version="opset1">
			<data auto_broadcast="numpy" />
			<input>
				<port id="0" precision="FP32">
					<dim>1</dim>
				</port>
				<port id="1" precision="FP32">
					<dim>-1</dim>
					<dim>32</dim>
					<dim>-1</dim>
					<dim>-1</dim>
				</port>
			</input>
			<output>
				<port id="2" precision="FP32" names="p2o.Mul.11">
					<dim>-1</dim>
					<dim>32</dim>
					<dim>-1</dim>
					<dim>-1</dim>
				</port>
			</output>
		</layer>
		<layer id="263" name="whswish_b_2.w_1_compressed" type="Const" version="opset1">
			<data element_type="f16" shape="1" offset="2072" size="2" />
			<output>
				<port id="0" precision="FP16" names="whswish_b_2.w_1">
					<dim>1</dim>
				</port>
			</output>
		</layer>
		<layer id="264" name="whswish_b_2.w_1" type="Convert" version="opset1">
			<data destination_type="f32" />
			<rt_info>
				<attribute name="decompression" version="0" />
			</rt_info>
			<input>
				<port id="0" precision="FP16">
					<dim>1</dim>
				</port>
			</input>
			<output>
				<port id="1" precision="FP32">
					<dim>1</dim>
				</port>
			</output>
		</layer>
		<layer id="265" name="p2o.Add.14" type="Add" version="opset1">
			<data auto_broadcast="numpy" />
			<input>
				<port id="0" precision="FP32">
					<dim>-1</dim>
					<dim>32</dim>
					<dim>-1</dim>
					<dim>-1</dim>
				</port>
				<port id="1" precision="FP32">
					<dim>1</dim>
				</port>
			</input>
			<output>
				<port id="2" precision="FP32" names="p2o.Add.15">
					<dim>-1</dim>
					<dim>32</dim>
					<dim>-1</dim>
					<dim>-1</dim>
				</port>
			</output>
		</layer>
		<layer id="266" name="p2o.Add.14/fq_output_0/input_low" type="Const" version="opset1">
			<data element_type="f32" shape="1, 32, 1, 1" offset="2074" size="128" />
			<output>
				<port id="0" precision="FP32">
					<dim>1</dim>
					<dim>32</dim>
					<dim>1</dim>
					<dim>1</dim>
				</port>
			</output>
		</layer>
		<layer id="267" name="p2o.Add.14/fq_output_0/input_high" type="Const" version="opset1">
			<data element_type="f32" shape="1, 32, 1, 1" offset="2202" size="128" />
			<output>
				<port id="0" precision="FP32">
					<dim>1</dim>
					<dim>32</dim>
					<dim>1</dim>
					<dim>1</dim>
				</port>
			</output>
		</layer>
		<layer id="268" name="p2o.Add.14/fq_output_0/output_low" type="Const" version="opset1">
			<data element_type="f32" shape="1, 32, 1, 1" offset="2074" size="128" />
			<output>
				<port id="0" precision="FP32">
					<dim>1</dim>
					<dim>32</dim>
					<dim>1</dim>
					<dim>1</dim>
				</port>
			</output>
		</layer>
		<layer id="269" name="p2o.Add.14/fq_output_0/output_high" type="Const" version="opset1">
			<data element_type="f32" shape="1, 32, 1, 1" offset="2202" size="128" />
			<output>
				<port id="0" precision="FP32">
					<dim>1</dim>
					<dim>32</dim>
					<dim>1</dim>
					<dim>1</dim>
				</port>
			</output>
		</layer>
		<layer id="270" name="p2o.Add.14/fq_output_0" type="FakeQuantize" version="opset1">
			<data levels="256" auto_broadcast="numpy" />
			<input>
				<port id="0" precision="FP32">
					<dim>-1</dim>
					<dim>32</dim>
					<dim>-1</dim>
					<dim>-1</dim>
				</port>
				<port id="1" precision="FP32">
					<dim>1</dim>
					<dim>32</dim>
					<dim>1</dim>
					<dim>1</dim>
				</port>
				<port id="2" precision="FP32">
					<dim>1</dim>
					<dim>32</dim>
					<dim>1</dim>
					<dim>1</dim>
				</port>
				<port id="3" precision="FP32">
					<dim>1</dim>
					<dim>32</dim>
					<dim>1</dim>
					<dim>1</dim>
				</port>
				<port id="4" precision="FP32">
					<dim>1</dim>
					<dim>32</dim>
					<dim>1</dim>
					<dim>1</dim>
				</port>
			</input>
			<output>
				<port id="5" precision="FP32">
					<dim>-1</dim>
					<dim>32</dim>
					<dim>-1</dim>
					<dim>-1</dim>
				</port>
			</output>
		</layer>
		<layer id="271" name="p2o.Add.14/fq_output_0/fq_output_0/input_low" type="Const" version="opset1">
			<data element_type="f32" shape="1, 32, 1, 1" offset="2330" size="128" />
			<output>
				<port id="0" precision="FP32">
					<dim>1</dim>
					<dim>32</dim>
					<dim>1</dim>
					<dim>1</dim>
				</port>
			</output>
		</layer>
		<layer id="272" name="p2o.Add.14/fq_output_0/fq_output_0/input_high" type="Const" version="opset1">
			<data element_type="f32" shape="1, 32, 1, 1" offset="2458" size="128" />
			<output>
				<port id="0" precision="FP32">
					<dim>1</dim>
					<dim>32</dim>
					<dim>1</dim>
					<dim>1</dim>
				</port>
			</output>
		</layer>
		<layer id="273" name="p2o.Add.14/fq_output_0/fq_output_0/output_low" type="Const" version="opset1">
			<data element_type="f32" shape="1, 32, 1, 1" offset="2330" size="128" />
			<output>
				<port id="0" precision="FP32">
					<dim>1</dim>
					<dim>32</dim>
					<dim>1</dim>
					<dim>1</dim>
				</port>
			</output>
		</layer>
		<layer id="274" name="p2o.Add.14/fq_output_0/fq_output_0/output_high" type="Const" version="opset1">
			<data element_type="f32" shape="1, 32, 1, 1" offset="2458" size="128" />
			<output>
				<port id="0" precision="FP32">
					<dim>1</dim>
					<dim>32</dim>
					<dim>1</dim>
					<dim>1</dim>
				</port>
			</output>
		</layer>
		<layer id="275" name="p2o.Add.14/fq_output_0/fq_output_0" type="FakeQuantize" version="opset1">
			<data levels="256" auto_broadcast="numpy" />
			<input>
				<port id="0" precision="FP32">
					<dim>-1</dim>
					<dim>32</dim>
					<dim>-1</dim>
					<dim>-1</dim>
				</port>
				<port id="1" precision="FP32">
					<dim>1</dim>
					<dim>32</dim>
					<dim>1</dim>
					<dim>1</dim>
				</port>
				<port id="2" precision="FP32">
					<dim>1</dim>
					<dim>32</dim>
					<dim>1</dim>
					<dim>1</dim>
				</port>
				<port id="3" precision="FP32">
					<dim>1</dim>
					<dim>32</dim>
					<dim>1</dim>
					<dim>1</dim>
				</port>
				<port id="4" precision="FP32">
					<dim>1</dim>
					<dim>32</dim>
					<dim>1</dim>
					<dim>1</dim>
				</port>
			</input>
			<output>
				<port id="5" precision="FP32">
					<dim>-1</dim>
					<dim>32</dim>
					<dim>-1</dim>
					<dim>-1</dim>
				</port>
			</output>
		</layer>
		<layer id="276" name="Constant_214456" type="Const" version="opset1">
			<data element_type="i8" shape="32, 1, 1, 3, 3" offset="2586" size="288" />
			<output>
				<port id="0" precision="I8">
					<dim>32</dim>
					<dim>1</dim>
					<dim>1</dim>
					<dim>3</dim>
					<dim>3</dim>
				</port>
			</output>
		</layer>
		<layer id="277" name="Convert_214457" type="Convert" version="opset1">
			<data destination_type="f32" />
			<input>
				<port id="0" precision="I8">
					<dim>32</dim>
					<dim>1</dim>
					<dim>1</dim>
					<dim>3</dim>
					<dim>3</dim>
				</port>
			</input>
			<output>
				<port id="1" precision="FP32">
					<dim>32</dim>
					<dim>1</dim>
					<dim>1</dim>
					<dim>3</dim>
					<dim>3</dim>
				</port>
			</output>
		</layer>
		<layer id="278" name="Constant_214458" type="Const" version="opset1">
			<data element_type="f32" shape="32, 1, 1, 1, 1" offset="2874" size="128" />
			<output>
				<port id="0" precision="FP32">
					<dim>32</dim>
					<dim>1</dim>
					<dim>1</dim>
					<dim>1</dim>
					<dim>1</dim>
				</port>
			</output>
		</layer>
		<layer id="279" name="p2o.Conv.3/WithoutBiases/fq_weights_1" type="Multiply" version="opset1">
			<data auto_broadcast="numpy" />
			<input>
				<port id="0" precision="FP32">
					<dim>32</dim>
					<dim>1</dim>
					<dim>1</dim>
					<dim>3</dim>
					<dim>3</dim>
				</port>
				<port id="1" precision="FP32">
					<dim>32</dim>
					<dim>1</dim>
					<dim>1</dim>
					<dim>1</dim>
					<dim>1</dim>
				</port>
			</input>
			<output>
				<port id="2" precision="FP32">
					<dim>32</dim>
					<dim>1</dim>
					<dim>1</dim>
					<dim>3</dim>
					<dim>3</dim>
				</port>
			</output>
		</layer>
		<layer id="280" name="p2o.Conv.3/WithoutBiases" type="GroupConvolution" version="opset1">
			<data strides="2, 2" pads_begin="1, 1" pads_end="1, 1" dilations="1, 1" auto_pad="explicit" />
			<input>
				<port id="0" precision="FP32">
					<dim>-1</dim>
					<dim>32</dim>
					<dim>-1</dim>
					<dim>-1</dim>
				</port>
				<port id="1" precision="FP32">
					<dim>32</dim>
					<dim>1</dim>
					<dim>1</dim>
					<dim>3</dim>
					<dim>3</dim>
				</port>
			</input>
			<output>
				<port id="2" precision="FP32">
					<dim>-1</dim>
					<dim>32</dim>
					<dim>-1</dim>
					<dim>-1</dim>
				</port>
			</output>
		</layer>
		<layer id="281" name="Reshape_394_compressed" type="Const" version="opset1">
			<data element_type="f16" shape="1, 32, 1, 1" offset="3002" size="64" />
			<output>
				<port id="0" precision="FP16">
					<dim>1</dim>
					<dim>32</dim>
					<dim>1</dim>
					<dim>1</dim>
				</port>
			</output>
		</layer>
		<layer id="282" name="Reshape_394" type="Convert" version="opset1">
			<data destination_type="f32" />
			<rt_info>
				<attribute name="decompression" version="0" />
			</rt_info>
			<input>
				<port id="0" precision="FP16">
					<dim>1</dim>
					<dim>32</dim>
					<dim>1</dim>
					<dim>1</dim>
				</port>
			</input>
			<output>
				<port id="1" precision="FP32">
					<dim>1</dim>
					<dim>32</dim>
					<dim>1</dim>
					<dim>1</dim>
				</port>
			</output>
		</layer>
		<layer id="283" name="p2o.Conv.3" type="Add" version="opset1">
			<data auto_broadcast="numpy" />
			<input>
				<port id="0" precision="FP32">
					<dim>-1</dim>
					<dim>32</dim>
					<dim>-1</dim>
					<dim>-1</dim>
				</port>
				<port id="1" precision="FP32">
					<dim>1</dim>
					<dim>32</dim>
					<dim>1</dim>
					<dim>1</dim>
				</port>
			</input>
			<output>
				<port id="2" precision="FP32" names="depthwise_conv2d_1.tmp_0">
					<dim>-1</dim>
					<dim>32</dim>
					<dim>-1</dim>
					<dim>-1</dim>
				</port>
			</output>
		</layer>
		<layer id="284" name="p2o.Mul.12" type="Multiply" version="opset1">
			<data auto_broadcast="numpy" />
			<input>
				<port id="0" precision="FP32">
					<dim>1</dim>
				</port>
				<port id="1" precision="FP32">
					<dim>-1</dim>
					<dim>32</dim>
					<dim>-1</dim>
					<dim>-1</dim>
				</port>
			</input>
			<output>
				<port id="2" precision="FP32" names="p2o.Mul.13">
					<dim>-1</dim>
					<dim>32</dim>
					<dim>-1</dim>
					<dim>-1</dim>
				</port>
			</output>
		</layer>
		<layer id="285" name="mobile_one_block_2.w_1_compressed" type="Const" version="opset1">
			<data element_type="f16" shape="1" offset="3066" size="2" />
			<output>
				<port id="0" precision="FP16" names="mobile_one_block_2.w_1">
					<dim>1</dim>
				</port>
			</output>
		</layer>
		<layer id="286" name="mobile_one_block_2.w_1" type="Convert" version="opset1">
			<data destination_type="f32" />
			<rt_info>
				<attribute name="decompression" version="0" />
			</rt_info>
			<input>
				<port id="0" precision="FP16">
					<dim>1</dim>
				</port>
			</input>
			<output>
				<port id="1" precision="FP32">
					<dim>1</dim>
				</port>
			</output>
		</layer>
		<layer id="287" name="p2o.Add.18" type="Add" version="opset1">
			<data auto_broadcast="numpy" />
			<input>
				<port id="0" precision="FP32">
					<dim>-1</dim>
					<dim>32</dim>
					<dim>-1</dim>
					<dim>-1</dim>
				</port>
				<port id="1" precision="FP32">
					<dim>1</dim>
				</port>
			</input>
			<output>
				<port id="2" precision="FP32" names="p2o.Add.19">
					<dim>-1</dim>
					<dim>32</dim>
					<dim>-1</dim>
					<dim>-1</dim>
				</port>
			</output>
		</layer>
		<layer id="288" name="p2o.Add.18/fq_output_0/input_low" type="Const" version="opset1">
			<data element_type="f32" shape="" offset="3068" size="4" />
			<output>
				<port id="0" precision="FP32" />
			</output>
		</layer>
		<layer id="289" name="p2o.Add.18/fq_output_0/input_high" type="Const" version="opset1">
			<data element_type="f32" shape="" offset="3072" size="4" />
			<output>
				<port id="0" precision="FP32" />
			</output>
		</layer>
		<layer id="290" name="p2o.Add.18/fq_output_0/output_low" type="Const" version="opset1">
			<data element_type="f32" shape="" offset="3068" size="4" />
			<output>
				<port id="0" precision="FP32" />
			</output>
		</layer>
		<layer id="291" name="p2o.Add.18/fq_output_0/output_high" type="Const" version="opset1">
			<data element_type="f32" shape="" offset="3072" size="4" />
			<output>
				<port id="0" precision="FP32" />
			</output>
		</layer>
		<layer id="292" name="p2o.Add.18/fq_output_0" type="FakeQuantize" version="opset1">
			<data levels="256" auto_broadcast="numpy" />
			<input>
				<port id="0" precision="FP32">
					<dim>-1</dim>
					<dim>32</dim>
					<dim>-1</dim>
					<dim>-1</dim>
				</port>
				<port id="1" precision="FP32" />
				<port id="2" precision="FP32" />
				<port id="3" precision="FP32" />
				<port id="4" precision="FP32" />
			</input>
			<output>
				<port id="5" precision="FP32">
					<dim>-1</dim>
					<dim>32</dim>
					<dim>-1</dim>
					<dim>-1</dim>
				</port>
			</output>
		</layer>
		<layer id="293" name="p2o.Add.18/fq_output_0/fq_output_0/input_low" type="Const" version="opset1">
			<data element_type="f32" shape="" offset="3076" size="4" />
			<output>
				<port id="0" precision="FP32" />
			</output>
		</layer>
		<layer id="294" name="p2o.Add.18/fq_output_0/fq_output_0/input_high" type="Const" version="opset1">
			<data element_type="f32" shape="" offset="3080" size="4" />
			<output>
				<port id="0" precision="FP32" />
			</output>
		</layer>
		<layer id="295" name="p2o.Add.18/fq_output_0/fq_output_0/output_low" type="Const" version="opset1">
			<data element_type="f32" shape="" offset="3076" size="4" />
			<output>
				<port id="0" precision="FP32" />
			</output>
		</layer>
		<layer id="296" name="p2o.Add.18/fq_output_0/fq_output_0/output_high" type="Const" version="opset1">
			<data element_type="f32" shape="" offset="3080" size="4" />
			<output>
				<port id="0" precision="FP32" />
			</output>
		</layer>
		<layer id="297" name="p2o.Add.18/fq_output_0/fq_output_0" type="FakeQuantize" version="opset1">
			<data levels="256" auto_broadcast="numpy" />
			<input>
				<port id="0" precision="FP32">
					<dim>-1</dim>
					<dim>32</dim>
					<dim>-1</dim>
					<dim>-1</dim>
				</port>
				<port id="1" precision="FP32" />
				<port id="2" precision="FP32" />
				<port id="3" precision="FP32" />
				<port id="4" precision="FP32" />
			</input>
			<output>
				<port id="5" precision="FP32">
					<dim>-1</dim>
					<dim>32</dim>
					<dim>-1</dim>
					<dim>-1</dim>
				</port>
			</output>
		</layer>
		<layer id="298" name="Constant_214461" type="Const" version="opset1">
			<data element_type="i8" shape="48, 32, 1, 1" offset="3084" size="1536" />
			<output>
				<port id="0" precision="I8">
					<dim>48</dim>
					<dim>32</dim>
					<dim>1</dim>
					<dim>1</dim>
				</port>
			</output>
		</layer>
		<layer id="299" name="Convert_214462" type="Convert" version="opset1">
			<data destination_type="f32" />
			<input>
				<port id="0" precision="I8">
					<dim>48</dim>
					<dim>32</dim>
					<dim>1</dim>
					<dim>1</dim>
				</port>
			</input>
			<output>
				<port id="1" precision="FP32">
					<dim>48</dim>
					<dim>32</dim>
					<dim>1</dim>
					<dim>1</dim>
				</port>
			</output>
		</layer>
		<layer id="300" name="Constant_214463" type="Const" version="opset1">
			<data element_type="f32" shape="48, 1, 1, 1" offset="4620" size="192" />
			<output>
				<port id="0" precision="FP32">
					<dim>48</dim>
					<dim>1</dim>
					<dim>1</dim>
					<dim>1</dim>
				</port>
			</output>
		</layer>
		<layer id="301" name="p2o.Conv.4/WithoutBiases/fq_weights_1" type="Multiply" version="opset1">
			<data auto_broadcast="numpy" />
			<input>
				<port id="0" precision="FP32">
					<dim>48</dim>
					<dim>32</dim>
					<dim>1</dim>
					<dim>1</dim>
				</port>
				<port id="1" precision="FP32">
					<dim>48</dim>
					<dim>1</dim>
					<dim>1</dim>
					<dim>1</dim>
				</port>
			</input>
			<output>
				<port id="2" precision="FP32">
					<dim>48</dim>
					<dim>32</dim>
					<dim>1</dim>
					<dim>1</dim>
				</port>
			</output>
		</layer>
		<layer id="302" name="p2o.Conv.4/WithoutBiases" type="Convolution" version="opset1">
			<data strides="1, 1" dilations="1, 1" pads_begin="0, 0" pads_end="0, 0" auto_pad="explicit" />
			<input>
				<port id="0" precision="FP32">
					<dim>-1</dim>
					<dim>32</dim>
					<dim>-1</dim>
					<dim>-1</dim>
				</port>
				<port id="1" precision="FP32">
					<dim>48</dim>
					<dim>32</dim>
					<dim>1</dim>
					<dim>1</dim>
				</port>
			</input>
			<output>
				<port id="2" precision="FP32">
					<dim>-1</dim>
					<dim>48</dim>
					<dim>-1</dim>
					<dim>-1</dim>
				</port>
			</output>
		</layer>
		<layer id="303" name="Reshape_409_compressed" type="Const" version="opset1">
			<data element_type="f16" shape="1, 48, 1, 1" offset="4812" size="96" />
			<output>
				<port id="0" precision="FP16">
					<dim>1</dim>
					<dim>48</dim>
					<dim>1</dim>
					<dim>1</dim>
				</port>
			</output>
		</layer>
		<layer id="304" name="Reshape_409" type="Convert" version="opset1">
			<data destination_type="f32" />
			<rt_info>
				<attribute name="decompression" version="0" />
			</rt_info>
			<input>
				<port id="0" precision="FP16">
					<dim>1</dim>
					<dim>48</dim>
					<dim>1</dim>
					<dim>1</dim>
				</port>
			</input>
			<output>
				<port id="1" precision="FP32">
					<dim>1</dim>
					<dim>48</dim>
					<dim>1</dim>
					<dim>1</dim>
				</port>
			</output>
		</layer>
		<layer id="305" name="p2o.Conv.4" type="Add" version="opset1">
			<data auto_broadcast="numpy" />
			<input>
				<port id="0" precision="FP32">
					<dim>-1</dim>
					<dim>48</dim>
					<dim>-1</dim>
					<dim>-1</dim>
				</port>
				<port id="1" precision="FP32">
					<dim>1</dim>
					<dim>48</dim>
					<dim>1</dim>
					<dim>1</dim>
				</port>
			</input>
			<output>
				<port id="2" precision="FP32" names="conv2d_452.tmp_0">
					<dim>-1</dim>
					<dim>48</dim>
					<dim>-1</dim>
					<dim>-1</dim>
				</port>
			</output>
		</layer>
		<layer id="306" name="p2o.Mul.14" type="Multiply" version="opset1">
			<data auto_broadcast="numpy" />
			<input>
				<port id="0" precision="FP32">
					<dim>1</dim>
				</port>
				<port id="1" precision="FP32">
					<dim>-1</dim>
					<dim>48</dim>
					<dim>-1</dim>
					<dim>-1</dim>
				</port>
			</input>
			<output>
				<port id="2" precision="FP32" names="p2o.Mul.15">
					<dim>-1</dim>
					<dim>48</dim>
					<dim>-1</dim>
					<dim>-1</dim>
				</port>
			</output>
		</layer>
		<layer id="307" name="mobile_one_block_3.w_1_compressed" type="Const" version="opset1">
			<data element_type="f16" shape="1" offset="4908" size="2" />
			<output>
				<port id="0" precision="FP16" names="mobile_one_block_3.w_1">
					<dim>1</dim>
				</port>
			</output>
		</layer>
		<layer id="308" name="mobile_one_block_3.w_1" type="Convert" version="opset1">
			<data destination_type="f32" />
			<rt_info>
				<attribute name="decompression" version="0" />
			</rt_info>
			<input>
				<port id="0" precision="FP16">
					<dim>1</dim>
				</port>
			</input>
			<output>
				<port id="1" precision="FP32">
					<dim>1</dim>
				</port>
			</output>
		</layer>
		<layer id="309" name="p2o.Add.22" type="Add" version="opset1">
			<data auto_broadcast="numpy" />
			<input>
				<port id="0" precision="FP32">
					<dim>-1</dim>
					<dim>48</dim>
					<dim>-1</dim>
					<dim>-1</dim>
				</port>
				<port id="1" precision="FP32">
					<dim>1</dim>
				</port>
			</input>
			<output>
				<port id="2" precision="FP32" names="p2o.Add.23">
					<dim>-1</dim>
					<dim>48</dim>
					<dim>-1</dim>
					<dim>-1</dim>
				</port>
			</output>
		</layer>
		<layer id="310" name="p2o.Add.22/fq_output_0/input_low" type="Const" version="opset1">
			<data element_type="f32" shape="" offset="4910" size="4" />
			<output>
				<port id="0" precision="FP32" />
			</output>
		</layer>
		<layer id="311" name="p2o.Add.22/fq_output_0/input_high" type="Const" version="opset1">
			<data element_type="f32" shape="" offset="4914" size="4" />
			<output>
				<port id="0" precision="FP32" />
			</output>
		</layer>
		<layer id="312" name="p2o.Add.22/fq_output_0/output_low" type="Const" version="opset1">
			<data element_type="f32" shape="" offset="4910" size="4" />
			<output>
				<port id="0" precision="FP32" />
			</output>
		</layer>
		<layer id="313" name="p2o.Add.22/fq_output_0/output_high" type="Const" version="opset1">
			<data element_type="f32" shape="" offset="4914" size="4" />
			<output>
				<port id="0" precision="FP32" />
			</output>
		</layer>
		<layer id="314" name="p2o.Add.22/fq_output_0" type="FakeQuantize" version="opset1">
			<data levels="256" auto_broadcast="numpy" />
			<input>
				<port id="0" precision="FP32">
					<dim>-1</dim>
					<dim>48</dim>
					<dim>-1</dim>
					<dim>-1</dim>
				</port>
				<port id="1" precision="FP32" />
				<port id="2" precision="FP32" />
				<port id="3" precision="FP32" />
				<port id="4" precision="FP32" />
			</input>
			<output>
				<port id="5" precision="FP32">
					<dim>-1</dim>
					<dim>48</dim>
					<dim>-1</dim>
					<dim>-1</dim>
				</port>
			</output>
		</layer>
		<layer id="315" name="p2o.Add.22/fq_output_0/fq_output_0/input_low" type="Const" version="opset1">
			<data element_type="f32" shape="" offset="4918" size="4" />
			<output>
				<port id="0" precision="FP32" />
			</output>
		</layer>
		<layer id="316" name="p2o.Add.22/fq_output_0/fq_output_0/input_high" type="Const" version="opset1">
			<data element_type="f32" shape="" offset="4922" size="4" />
			<output>
				<port id="0" precision="FP32" />
			</output>
		</layer>
		<layer id="317" name="p2o.Add.22/fq_output_0/fq_output_0/output_low" type="Const" version="opset1">
			<data element_type="f32" shape="" offset="4918" size="4" />
			<output>
				<port id="0" precision="FP32" />
			</output>
		</layer>
		<layer id="318" name="p2o.Add.22/fq_output_0/fq_output_0/output_high" type="Const" version="opset1">
			<data element_type="f32" shape="" offset="4922" size="4" />
			<output>
				<port id="0" precision="FP32" />
			</output>
		</layer>
		<layer id="319" name="p2o.Add.22/fq_output_0/fq_output_0" type="FakeQuantize" version="opset1">
			<data levels="256" auto_broadcast="numpy" />
			<input>
				<port id="0" precision="FP32">
					<dim>-1</dim>
					<dim>48</dim>
					<dim>-1</dim>
					<dim>-1</dim>
				</port>
				<port id="1" precision="FP32" />
				<port id="2" precision="FP32" />
				<port id="3" precision="FP32" />
				<port id="4" precision="FP32" />
			</input>
			<output>
				<port id="5" precision="FP32">
					<dim>-1</dim>
					<dim>48</dim>
					<dim>-1</dim>
					<dim>-1</dim>
				</port>
			</output>
		</layer>
		<layer id="320" name="p2o.helper.constant.15_compressed" type="Const" version="opset1">
			<data element_type="f16" shape="" offset="1316" size="2" />
			<output>
				<port id="0" precision="FP16" names="p2o.helper.constant.15" />
			</output>
		</layer>
		<layer id="321" name="p2o.helper.constant.15" type="Convert" version="opset1">
			<data destination_type="f32" />
			<rt_info>
				<attribute name="decompression" version="0" />
			</rt_info>
			<input>
				<port id="0" precision="FP16" />
			</input>
			<output>
				<port id="1" precision="FP32" />
			</output>
		</layer>
		<layer id="322" name="p2o.helper.constant.14_compressed" type="Const" version="opset1">
			<data element_type="f16" shape="" offset="1318" size="2" />
			<output>
				<port id="0" precision="FP16" names="p2o.helper.constant.14" />
			</output>
		</layer>
		<layer id="323" name="p2o.helper.constant.14" type="Convert" version="opset1">
			<data destination_type="f32" />
			<rt_info>
				<attribute name="decompression" version="0" />
			</rt_info>
			<input>
				<port id="0" precision="FP16" />
			</input>
			<output>
				<port id="1" precision="FP32" />
			</output>
		</layer>
		<layer id="324" name="p2o.helper.constant.13_compressed" type="Const" version="opset1">
			<data element_type="f16" shape="" offset="1320" size="2" />
			<output>
				<port id="0" precision="FP16" names="p2o.helper.constant.13" />
			</output>
		</layer>
		<layer id="325" name="p2o.helper.constant.13" type="Convert" version="opset1">
			<data destination_type="f32" />
			<rt_info>
				<attribute name="decompression" version="0" />
			</rt_info>
			<input>
				<port id="0" precision="FP16" />
			</input>
			<output>
				<port id="1" precision="FP32" />
			</output>
		</layer>
		<layer id="326" name="p2o.Add.24" type="Add" version="opset1">
			<data auto_broadcast="numpy" />
			<input>
				<port id="0" precision="FP32">
					<dim>-1</dim>
					<dim>48</dim>
					<dim>-1</dim>
					<dim>-1</dim>
				</port>
				<port id="1" precision="FP32" />
			</input>
			<output>
				<port id="2" precision="FP32" names="p2o.Add.25">
					<dim>-1</dim>
					<dim>48</dim>
					<dim>-1</dim>
					<dim>-1</dim>
				</port>
			</output>
		</layer>
		<layer id="327" name="Maximum_418" type="Maximum" version="opset1">
			<data auto_broadcast="numpy" />
			<input>
				<port id="0" precision="FP32" />
				<port id="1" precision="FP32">
					<dim>-1</dim>
					<dim>48</dim>
					<dim>-1</dim>
					<dim>-1</dim>
				</port>
			</input>
			<output>
				<port id="2" precision="FP32">
					<dim>-1</dim>
					<dim>48</dim>
					<dim>-1</dim>
					<dim>-1</dim>
				</port>
			</output>
		</layer>
		<layer id="328" name="p2o.Clip.4" type="Minimum" version="opset1">
			<data auto_broadcast="numpy" />
			<input>
				<port id="0" precision="FP32" />
				<port id="1" precision="FP32">
					<dim>-1</dim>
					<dim>48</dim>
					<dim>-1</dim>
					<dim>-1</dim>
				</port>
			</input>
			<output>
				<port id="2" precision="FP32" names="p2o.Clip.5">
					<dim>-1</dim>
					<dim>48</dim>
					<dim>-1</dim>
					<dim>-1</dim>
				</port>
			</output>
		</layer>
		<layer id="329" name="p2o.Clip.4/fq_output_0/input_low" type="Const" version="opset1">
			<data element_type="f32" shape="" offset="1322" size="4" />
			<output>
				<port id="0" precision="FP32" />
			</output>
		</layer>
		<layer id="330" name="p2o.Clip.4/fq_output_0/input_high" type="Const" version="opset1">
			<data element_type="f32" shape="" offset="1326" size="4" />
			<output>
				<port id="0" precision="FP32" />
			</output>
		</layer>
		<layer id="331" name="p2o.Clip.4/fq_output_0/output_low" type="Const" version="opset1">
			<data element_type="f32" shape="" offset="1322" size="4" />
			<output>
				<port id="0" precision="FP32" />
			</output>
		</layer>
		<layer id="332" name="p2o.Clip.4/fq_output_0/output_high" type="Const" version="opset1">
			<data element_type="f32" shape="" offset="1326" size="4" />
			<output>
				<port id="0" precision="FP32" />
			</output>
		</layer>
		<layer id="333" name="p2o.Clip.4/fq_output_0" type="FakeQuantize" version="opset1">
			<data levels="256" auto_broadcast="numpy" />
			<input>
				<port id="0" precision="FP32">
					<dim>-1</dim>
					<dim>48</dim>
					<dim>-1</dim>
					<dim>-1</dim>
				</port>
				<port id="1" precision="FP32" />
				<port id="2" precision="FP32" />
				<port id="3" precision="FP32" />
				<port id="4" precision="FP32" />
			</input>
			<output>
				<port id="5" precision="FP32">
					<dim>-1</dim>
					<dim>48</dim>
					<dim>-1</dim>
					<dim>-1</dim>
				</port>
			</output>
		</layer>
		<layer id="334" name="p2o.Clip.4/fq_output_0/fq_output_0/input_low" type="Const" version="opset1">
			<data element_type="f32" shape="" offset="1322" size="4" />
			<output>
				<port id="0" precision="FP32" />
			</output>
		</layer>
		<layer id="335" name="p2o.Clip.4/fq_output_0/fq_output_0/input_high" type="Const" version="opset1">
			<data element_type="f32" shape="" offset="4926" size="4" />
			<output>
				<port id="0" precision="FP32" />
			</output>
		</layer>
		<layer id="336" name="p2o.Clip.4/fq_output_0/fq_output_0/output_low" type="Const" version="opset1">
			<data element_type="f32" shape="" offset="1322" size="4" />
			<output>
				<port id="0" precision="FP32" />
			</output>
		</layer>
		<layer id="337" name="p2o.Clip.4/fq_output_0/fq_output_0/output_high" type="Const" version="opset1">
			<data element_type="f32" shape="" offset="4926" size="4" />
			<output>
				<port id="0" precision="FP32" />
			</output>
		</layer>
		<layer id="338" name="p2o.Clip.4/fq_output_0/fq_output_0" type="FakeQuantize" version="opset1">
			<data levels="256" auto_broadcast="numpy" />
			<input>
				<port id="0" precision="FP32">
					<dim>-1</dim>
					<dim>48</dim>
					<dim>-1</dim>
					<dim>-1</dim>
				</port>
				<port id="1" precision="FP32" />
				<port id="2" precision="FP32" />
				<port id="3" precision="FP32" />
				<port id="4" precision="FP32" />
			</input>
			<output>
				<port id="5" precision="FP32">
					<dim>-1</dim>
					<dim>48</dim>
					<dim>-1</dim>
					<dim>-1</dim>
				</port>
			</output>
		</layer>
		<layer id="339" name="p2o.Mul.16" type="Multiply" version="opset1">
			<data auto_broadcast="numpy" />
			<input>
				<port id="0" precision="FP32">
					<dim>-1</dim>
					<dim>48</dim>
					<dim>-1</dim>
					<dim>-1</dim>
				</port>
				<port id="1" precision="FP32">
					<dim>-1</dim>
					<dim>48</dim>
					<dim>-1</dim>
					<dim>-1</dim>
				</port>
			</input>
			<output>
				<port id="2" precision="FP32" names="p2o.Mul.17">
					<dim>-1</dim>
					<dim>48</dim>
					<dim>-1</dim>
					<dim>-1</dim>
				</port>
			</output>
		</layer>
		<layer id="340" name="Constant_2969_compressed" type="Const" version="opset1">
			<data element_type="f16" shape="" offset="1334" size="2" />
			<output>
				<port id="0" precision="FP16" />
			</output>
		</layer>
		<layer id="341" name="Constant_2969" type="Convert" version="opset1">
			<data destination_type="f32" />
			<rt_info>
				<attribute name="decompression" version="0" />
			</rt_info>
			<input>
				<port id="0" precision="FP16" />
			</input>
			<output>
				<port id="1" precision="FP32" />
			</output>
		</layer>
		<layer id="342" name="p2o.Div.2" type="Multiply" version="opset1">
			<data auto_broadcast="numpy" />
			<input>
				<port id="0" precision="FP32">
					<dim>-1</dim>
					<dim>48</dim>
					<dim>-1</dim>
					<dim>-1</dim>
				</port>
				<port id="1" precision="FP32" />
			</input>
			<output>
				<port id="2" precision="FP32" names="hardswish_60.tmp_0">
					<dim>-1</dim>
					<dim>48</dim>
					<dim>-1</dim>
					<dim>-1</dim>
				</port>
			</output>
		</layer>
		<layer id="343" name="p2o.Mul.18" type="Multiply" version="opset1">
			<data auto_broadcast="numpy" />
			<input>
				<port id="0" precision="FP32">
					<dim>1</dim>
				</port>
				<port id="1" precision="FP32">
					<dim>-1</dim>
					<dim>48</dim>
					<dim>-1</dim>
					<dim>-1</dim>
				</port>
			</input>
			<output>
				<port id="2" precision="FP32" names="p2o.Mul.19">
					<dim>-1</dim>
					<dim>48</dim>
					<dim>-1</dim>
					<dim>-1</dim>
				</port>
			</output>
		</layer>
		<layer id="344" name="whswish_b_4.w_1_compressed" type="Const" version="opset1">
			<data element_type="f16" shape="1" offset="4930" size="2" />
			<output>
				<port id="0" precision="FP16" names="whswish_b_4.w_1">
					<dim>1</dim>
				</port>
			</output>
		</layer>
		<layer id="345" name="whswish_b_4.w_1" type="Convert" version="opset1">
			<data destination_type="f32" />
			<rt_info>
				<attribute name="decompression" version="0" />
			</rt_info>
			<input>
				<port id="0" precision="FP16">
					<dim>1</dim>
				</port>
			</input>
			<output>
				<port id="1" precision="FP32">
					<dim>1</dim>
				</port>
			</output>
		</layer>
		<layer id="346" name="p2o.Add.26" type="Add" version="opset1">
			<data auto_broadcast="numpy" />
			<input>
				<port id="0" precision="FP32">
					<dim>-1</dim>
					<dim>48</dim>
					<dim>-1</dim>
					<dim>-1</dim>
				</port>
				<port id="1" precision="FP32">
					<dim>1</dim>
				</port>
			</input>
			<output>
				<port id="2" precision="FP32" names="p2o.Add.27">
					<dim>-1</dim>
					<dim>48</dim>
					<dim>-1</dim>
					<dim>-1</dim>
				</port>
			</output>
		</layer>
		<layer id="347" name="p2o.Add.26/fq_output_0/input_low" type="Const" version="opset1">
			<data element_type="f32" shape="1, 48, 1, 1" offset="4932" size="192" />
			<output>
				<port id="0" precision="FP32">
					<dim>1</dim>
					<dim>48</dim>
					<dim>1</dim>
					<dim>1</dim>
				</port>
			</output>
		</layer>
		<layer id="348" name="p2o.Add.26/fq_output_0/input_high" type="Const" version="opset1">
			<data element_type="f32" shape="1, 48, 1, 1" offset="5124" size="192" />
			<output>
				<port id="0" precision="FP32">
					<dim>1</dim>
					<dim>48</dim>
					<dim>1</dim>
					<dim>1</dim>
				</port>
			</output>
		</layer>
		<layer id="349" name="p2o.Add.26/fq_output_0/output_low" type="Const" version="opset1">
			<data element_type="f32" shape="1, 48, 1, 1" offset="4932" size="192" />
			<output>
				<port id="0" precision="FP32">
					<dim>1</dim>
					<dim>48</dim>
					<dim>1</dim>
					<dim>1</dim>
				</port>
			</output>
		</layer>
		<layer id="350" name="p2o.Add.26/fq_output_0/output_high" type="Const" version="opset1">
			<data element_type="f32" shape="1, 48, 1, 1" offset="5124" size="192" />
			<output>
				<port id="0" precision="FP32">
					<dim>1</dim>
					<dim>48</dim>
					<dim>1</dim>
					<dim>1</dim>
				</port>
			</output>
		</layer>
		<layer id="351" name="p2o.Add.26/fq_output_0" type="FakeQuantize" version="opset1">
			<data levels="256" auto_broadcast="numpy" />
			<input>
				<port id="0" precision="FP32">
					<dim>-1</dim>
					<dim>48</dim>
					<dim>-1</dim>
					<dim>-1</dim>
				</port>
				<port id="1" precision="FP32">
					<dim>1</dim>
					<dim>48</dim>
					<dim>1</dim>
					<dim>1</dim>
				</port>
				<port id="2" precision="FP32">
					<dim>1</dim>
					<dim>48</dim>
					<dim>1</dim>
					<dim>1</dim>
				</port>
				<port id="3" precision="FP32">
					<dim>1</dim>
					<dim>48</dim>
					<dim>1</dim>
					<dim>1</dim>
				</port>
				<port id="4" precision="FP32">
					<dim>1</dim>
					<dim>48</dim>
					<dim>1</dim>
					<dim>1</dim>
				</port>
			</input>
			<output>
				<port id="5" precision="FP32">
					<dim>-1</dim>
					<dim>48</dim>
					<dim>-1</dim>
					<dim>-1</dim>
				</port>
			</output>
		</layer>
		<layer id="352" name="p2o.Add.26/fq_output_0/fq_output_0/input_low" type="Const" version="opset1">
			<data element_type="f32" shape="1, 48, 1, 1" offset="5316" size="192" />
			<output>
				<port id="0" precision="FP32">
					<dim>1</dim>
					<dim>48</dim>
					<dim>1</dim>
					<dim>1</dim>
				</port>
			</output>
		</layer>
		<layer id="353" name="p2o.Add.26/fq_output_0/fq_output_0/input_high" type="Const" version="opset1">
			<data element_type="f32" shape="1, 48, 1, 1" offset="5508" size="192" />
			<output>
				<port id="0" precision="FP32">
					<dim>1</dim>
					<dim>48</dim>
					<dim>1</dim>
					<dim>1</dim>
				</port>
			</output>
		</layer>
		<layer id="354" name="p2o.Add.26/fq_output_0/fq_output_0/output_low" type="Const" version="opset1">
			<data element_type="f32" shape="1, 48, 1, 1" offset="5316" size="192" />
			<output>
				<port id="0" precision="FP32">
					<dim>1</dim>
					<dim>48</dim>
					<dim>1</dim>
					<dim>1</dim>
				</port>
			</output>
		</layer>
		<layer id="355" name="p2o.Add.26/fq_output_0/fq_output_0/output_high" type="Const" version="opset1">
			<data element_type="f32" shape="1, 48, 1, 1" offset="5508" size="192" />
			<output>
				<port id="0" precision="FP32">
					<dim>1</dim>
					<dim>48</dim>
					<dim>1</dim>
					<dim>1</dim>
				</port>
			</output>
		</layer>
		<layer id="356" name="p2o.Add.26/fq_output_0/fq_output_0" type="FakeQuantize" version="opset1">
			<data levels="256" auto_broadcast="numpy" />
			<input>
				<port id="0" precision="FP32">
					<dim>-1</dim>
					<dim>48</dim>
					<dim>-1</dim>
					<dim>-1</dim>
				</port>
				<port id="1" precision="FP32">
					<dim>1</dim>
					<dim>48</dim>
					<dim>1</dim>
					<dim>1</dim>
				</port>
				<port id="2" precision="FP32">
					<dim>1</dim>
					<dim>48</dim>
					<dim>1</dim>
					<dim>1</dim>
				</port>
				<port id="3" precision="FP32">
					<dim>1</dim>
					<dim>48</dim>
					<dim>1</dim>
					<dim>1</dim>
				</port>
				<port id="4" precision="FP32">
					<dim>1</dim>
					<dim>48</dim>
					<dim>1</dim>
					<dim>1</dim>
				</port>
			</input>
			<output>
				<port id="5" precision="FP32">
					<dim>-1</dim>
					<dim>48</dim>
					<dim>-1</dim>
					<dim>-1</dim>
				</port>
			</output>
		</layer>
		<layer id="357" name="Constant_214466" type="Const" version="opset1">
			<data element_type="i8" shape="48, 1, 1, 3, 3" offset="5700" size="432" />
			<output>
				<port id="0" precision="I8">
					<dim>48</dim>
					<dim>1</dim>
					<dim>1</dim>
					<dim>3</dim>
					<dim>3</dim>
				</port>
			</output>
		</layer>
		<layer id="358" name="Convert_214467" type="Convert" version="opset1">
			<data destination_type="f32" />
			<input>
				<port id="0" precision="I8">
					<dim>48</dim>
					<dim>1</dim>
					<dim>1</dim>
					<dim>3</dim>
					<dim>3</dim>
				</port>
			</input>
			<output>
				<port id="1" precision="FP32">
					<dim>48</dim>
					<dim>1</dim>
					<dim>1</dim>
					<dim>3</dim>
					<dim>3</dim>
				</port>
			</output>
		</layer>
		<layer id="359" name="Constant_214468" type="Const" version="opset1">
			<data element_type="f32" shape="48, 1, 1, 1, 1" offset="6132" size="192" />
			<output>
				<port id="0" precision="FP32">
					<dim>48</dim>
					<dim>1</dim>
					<dim>1</dim>
					<dim>1</dim>
					<dim>1</dim>
				</port>
			</output>
		</layer>
		<layer id="360" name="p2o.Conv.5/WithoutBiases/fq_weights_1" type="Multiply" version="opset1">
			<data auto_broadcast="numpy" />
			<input>
				<port id="0" precision="FP32">
					<dim>48</dim>
					<dim>1</dim>
					<dim>1</dim>
					<dim>3</dim>
					<dim>3</dim>
				</port>
				<port id="1" precision="FP32">
					<dim>48</dim>
					<dim>1</dim>
					<dim>1</dim>
					<dim>1</dim>
					<dim>1</dim>
				</port>
			</input>
			<output>
				<port id="2" precision="FP32">
					<dim>48</dim>
					<dim>1</dim>
					<dim>1</dim>
					<dim>3</dim>
					<dim>3</dim>
				</port>
			</output>
		</layer>
		<layer id="361" name="p2o.Conv.5/WithoutBiases" type="GroupConvolution" version="opset1">
			<data strides="1, 1" pads_begin="1, 1" pads_end="1, 1" dilations="1, 1" auto_pad="explicit" />
			<input>
				<port id="0" precision="FP32">
					<dim>-1</dim>
					<dim>48</dim>
					<dim>-1</dim>
					<dim>-1</dim>
				</port>
				<port id="1" precision="FP32">
					<dim>48</dim>
					<dim>1</dim>
					<dim>1</dim>
					<dim>3</dim>
					<dim>3</dim>
				</port>
			</input>
			<output>
				<port id="2" precision="FP32">
					<dim>-1</dim>
					<dim>48</dim>
					<dim>-1</dim>
					<dim>-1</dim>
				</port>
			</output>
		</layer>
		<layer id="362" name="Reshape_481_compressed" type="Const" version="opset1">
			<data element_type="f16" shape="1, 48, 1, 1" offset="6324" size="96" />
			<output>
				<port id="0" precision="FP16">
					<dim>1</dim>
					<dim>48</dim>
					<dim>1</dim>
					<dim>1</dim>
				</port>
			</output>
		</layer>
		<layer id="363" name="Reshape_481" type="Convert" version="opset1">
			<data destination_type="f32" />
			<rt_info>
				<attribute name="decompression" version="0" />
			</rt_info>
			<input>
				<port id="0" precision="FP16">
					<dim>1</dim>
					<dim>48</dim>
					<dim>1</dim>
					<dim>1</dim>
				</port>
			</input>
			<output>
				<port id="1" precision="FP32">
					<dim>1</dim>
					<dim>48</dim>
					<dim>1</dim>
					<dim>1</dim>
				</port>
			</output>
		</layer>
		<layer id="364" name="p2o.Conv.5" type="Add" version="opset1">
			<data auto_broadcast="numpy" />
			<input>
				<port id="0" precision="FP32">
					<dim>-1</dim>
					<dim>48</dim>
					<dim>-1</dim>
					<dim>-1</dim>
				</port>
				<port id="1" precision="FP32">
					<dim>1</dim>
					<dim>48</dim>
					<dim>1</dim>
					<dim>1</dim>
				</port>
			</input>
			<output>
				<port id="2" precision="FP32" names="depthwise_conv2d_2.tmp_0">
					<dim>-1</dim>
					<dim>48</dim>
					<dim>-1</dim>
					<dim>-1</dim>
				</port>
			</output>
		</layer>
		<layer id="365" name="p2o.Mul.20" type="Multiply" version="opset1">
			<data auto_broadcast="numpy" />
			<input>
				<port id="0" precision="FP32">
					<dim>1</dim>
				</port>
				<port id="1" precision="FP32">
					<dim>-1</dim>
					<dim>48</dim>
					<dim>-1</dim>
					<dim>-1</dim>
				</port>
			</input>
			<output>
				<port id="2" precision="FP32" names="p2o.Mul.21">
					<dim>-1</dim>
					<dim>48</dim>
					<dim>-1</dim>
					<dim>-1</dim>
				</port>
			</output>
		</layer>
		<layer id="366" name="mobile_one_block_4.w_1_compressed" type="Const" version="opset1">
			<data element_type="f16" shape="1" offset="6420" size="2" />
			<output>
				<port id="0" precision="FP16" names="mobile_one_block_4.w_1">
					<dim>1</dim>
				</port>
			</output>
		</layer>
		<layer id="367" name="mobile_one_block_4.w_1" type="Convert" version="opset1">
			<data destination_type="f32" />
			<rt_info>
				<attribute name="decompression" version="0" />
			</rt_info>
			<input>
				<port id="0" precision="FP16">
					<dim>1</dim>
				</port>
			</input>
			<output>
				<port id="1" precision="FP32">
					<dim>1</dim>
				</port>
			</output>
		</layer>
		<layer id="368" name="p2o.Add.30" type="Add" version="opset1">
			<data auto_broadcast="numpy" />
			<input>
				<port id="0" precision="FP32">
					<dim>-1</dim>
					<dim>48</dim>
					<dim>-1</dim>
					<dim>-1</dim>
				</port>
				<port id="1" precision="FP32">
					<dim>1</dim>
				</port>
			</input>
			<output>
				<port id="2" precision="FP32" names="p2o.Add.31">
					<dim>-1</dim>
					<dim>48</dim>
					<dim>-1</dim>
					<dim>-1</dim>
				</port>
			</output>
		</layer>
		<layer id="369" name="p2o.Add.30/fq_output_0/input_low" type="Const" version="opset1">
			<data element_type="f32" shape="" offset="6422" size="4" />
			<output>
				<port id="0" precision="FP32" />
			</output>
		</layer>
		<layer id="370" name="p2o.Add.30/fq_output_0/input_high" type="Const" version="opset1">
			<data element_type="f32" shape="" offset="6426" size="4" />
			<output>
				<port id="0" precision="FP32" />
			</output>
		</layer>
		<layer id="371" name="p2o.Add.30/fq_output_0/output_low" type="Const" version="opset1">
			<data element_type="f32" shape="" offset="6422" size="4" />
			<output>
				<port id="0" precision="FP32" />
			</output>
		</layer>
		<layer id="372" name="p2o.Add.30/fq_output_0/output_high" type="Const" version="opset1">
			<data element_type="f32" shape="" offset="6426" size="4" />
			<output>
				<port id="0" precision="FP32" />
			</output>
		</layer>
		<layer id="373" name="p2o.Add.30/fq_output_0" type="FakeQuantize" version="opset1">
			<data levels="256" auto_broadcast="numpy" />
			<input>
				<port id="0" precision="FP32">
					<dim>-1</dim>
					<dim>48</dim>
					<dim>-1</dim>
					<dim>-1</dim>
				</port>
				<port id="1" precision="FP32" />
				<port id="2" precision="FP32" />
				<port id="3" precision="FP32" />
				<port id="4" precision="FP32" />
			</input>
			<output>
				<port id="5" precision="FP32">
					<dim>-1</dim>
					<dim>48</dim>
					<dim>-1</dim>
					<dim>-1</dim>
				</port>
			</output>
		</layer>
		<layer id="374" name="p2o.Add.30/fq_output_0/fq_output_0/input_low" type="Const" version="opset1">
			<data element_type="f32" shape="" offset="6430" size="4" />
			<output>
				<port id="0" precision="FP32" />
			</output>
		</layer>
		<layer id="375" name="p2o.Add.30/fq_output_0/fq_output_0/input_high" type="Const" version="opset1">
			<data element_type="f32" shape="" offset="6434" size="4" />
			<output>
				<port id="0" precision="FP32" />
			</output>
		</layer>
		<layer id="376" name="p2o.Add.30/fq_output_0/fq_output_0/output_low" type="Const" version="opset1">
			<data element_type="f32" shape="" offset="6430" size="4" />
			<output>
				<port id="0" precision="FP32" />
			</output>
		</layer>
		<layer id="377" name="p2o.Add.30/fq_output_0/fq_output_0/output_high" type="Const" version="opset1">
			<data element_type="f32" shape="" offset="6434" size="4" />
			<output>
				<port id="0" precision="FP32" />
			</output>
		</layer>
		<layer id="378" name="p2o.Add.30/fq_output_0/fq_output_0" type="FakeQuantize" version="opset1">
			<data levels="256" auto_broadcast="numpy" />
			<input>
				<port id="0" precision="FP32">
					<dim>-1</dim>
					<dim>48</dim>
					<dim>-1</dim>
					<dim>-1</dim>
				</port>
				<port id="1" precision="FP32" />
				<port id="2" precision="FP32" />
				<port id="3" precision="FP32" />
				<port id="4" precision="FP32" />
			</input>
			<output>
				<port id="5" precision="FP32">
					<dim>-1</dim>
					<dim>48</dim>
					<dim>-1</dim>
					<dim>-1</dim>
				</port>
			</output>
		</layer>
		<layer id="379" name="p2o.helper.constant.20_compressed" type="Const" version="opset1">
			<data element_type="f16" shape="" offset="1316" size="2" />
			<output>
				<port id="0" precision="FP16" names="p2o.helper.constant.20" />
			</output>
		</layer>
		<layer id="380" name="p2o.helper.constant.20" type="Convert" version="opset1">
			<data destination_type="f32" />
			<rt_info>
				<attribute name="decompression" version="0" />
			</rt_info>
			<input>
				<port id="0" precision="FP16" />
			</input>
			<output>
				<port id="1" precision="FP32" />
			</output>
		</layer>
		<layer id="381" name="p2o.helper.constant.19_compressed" type="Const" version="opset1">
			<data element_type="f16" shape="" offset="1318" size="2" />
			<output>
				<port id="0" precision="FP16" names="p2o.helper.constant.19" />
			</output>
		</layer>
		<layer id="382" name="p2o.helper.constant.19" type="Convert" version="opset1">
			<data destination_type="f32" />
			<rt_info>
				<attribute name="decompression" version="0" />
			</rt_info>
			<input>
				<port id="0" precision="FP16" />
			</input>
			<output>
				<port id="1" precision="FP32" />
			</output>
		</layer>
		<layer id="383" name="p2o.helper.constant.18_compressed" type="Const" version="opset1">
			<data element_type="f16" shape="" offset="1320" size="2" />
			<output>
				<port id="0" precision="FP16" names="p2o.helper.constant.18" />
			</output>
		</layer>
		<layer id="384" name="p2o.helper.constant.18" type="Convert" version="opset1">
			<data destination_type="f32" />
			<rt_info>
				<attribute name="decompression" version="0" />
			</rt_info>
			<input>
				<port id="0" precision="FP16" />
			</input>
			<output>
				<port id="1" precision="FP32" />
			</output>
		</layer>
		<layer id="385" name="p2o.Add.32" type="Add" version="opset1">
			<data auto_broadcast="numpy" />
			<input>
				<port id="0" precision="FP32">
					<dim>-1</dim>
					<dim>48</dim>
					<dim>-1</dim>
					<dim>-1</dim>
				</port>
				<port id="1" precision="FP32" />
			</input>
			<output>
				<port id="2" precision="FP32" names="p2o.Add.33">
					<dim>-1</dim>
					<dim>48</dim>
					<dim>-1</dim>
					<dim>-1</dim>
				</port>
			</output>
		</layer>
		<layer id="386" name="Maximum_490" type="Maximum" version="opset1">
			<data auto_broadcast="numpy" />
			<input>
				<port id="0" precision="FP32" />
				<port id="1" precision="FP32">
					<dim>-1</dim>
					<dim>48</dim>
					<dim>-1</dim>
					<dim>-1</dim>
				</port>
			</input>
			<output>
				<port id="2" precision="FP32">
					<dim>-1</dim>
					<dim>48</dim>
					<dim>-1</dim>
					<dim>-1</dim>
				</port>
			</output>
		</layer>
		<layer id="387" name="p2o.Clip.6" type="Minimum" version="opset1">
			<data auto_broadcast="numpy" />
			<input>
				<port id="0" precision="FP32" />
				<port id="1" precision="FP32">
					<dim>-1</dim>
					<dim>48</dim>
					<dim>-1</dim>
					<dim>-1</dim>
				</port>
			</input>
			<output>
				<port id="2" precision="FP32" names="p2o.Clip.7">
					<dim>-1</dim>
					<dim>48</dim>
					<dim>-1</dim>
					<dim>-1</dim>
				</port>
			</output>
		</layer>
		<layer id="388" name="p2o.Clip.6/fq_output_0/input_low" type="Const" version="opset1">
			<data element_type="f32" shape="" offset="1322" size="4" />
			<output>
				<port id="0" precision="FP32" />
			</output>
		</layer>
		<layer id="389" name="p2o.Clip.6/fq_output_0/input_high" type="Const" version="opset1">
			<data element_type="f32" shape="" offset="1326" size="4" />
			<output>
				<port id="0" precision="FP32" />
			</output>
		</layer>
		<layer id="390" name="p2o.Clip.6/fq_output_0/output_low" type="Const" version="opset1">
			<data element_type="f32" shape="" offset="1322" size="4" />
			<output>
				<port id="0" precision="FP32" />
			</output>
		</layer>
		<layer id="391" name="p2o.Clip.6/fq_output_0/output_high" type="Const" version="opset1">
			<data element_type="f32" shape="" offset="1326" size="4" />
			<output>
				<port id="0" precision="FP32" />
			</output>
		</layer>
		<layer id="392" name="p2o.Clip.6/fq_output_0" type="FakeQuantize" version="opset1">
			<data levels="256" auto_broadcast="numpy" />
			<input>
				<port id="0" precision="FP32">
					<dim>-1</dim>
					<dim>48</dim>
					<dim>-1</dim>
					<dim>-1</dim>
				</port>
				<port id="1" precision="FP32" />
				<port id="2" precision="FP32" />
				<port id="3" precision="FP32" />
				<port id="4" precision="FP32" />
			</input>
			<output>
				<port id="5" precision="FP32">
					<dim>-1</dim>
					<dim>48</dim>
					<dim>-1</dim>
					<dim>-1</dim>
				</port>
			</output>
		</layer>
		<layer id="393" name="p2o.Clip.6/fq_output_0/fq_output_0/input_low" type="Const" version="opset1">
			<data element_type="f32" shape="" offset="1322" size="4" />
			<output>
				<port id="0" precision="FP32" />
			</output>
		</layer>
		<layer id="394" name="p2o.Clip.6/fq_output_0/fq_output_0/input_high" type="Const" version="opset1">
			<data element_type="f32" shape="" offset="6438" size="4" />
			<output>
				<port id="0" precision="FP32" />
			</output>
		</layer>
		<layer id="395" name="p2o.Clip.6/fq_output_0/fq_output_0/output_low" type="Const" version="opset1">
			<data element_type="f32" shape="" offset="1322" size="4" />
			<output>
				<port id="0" precision="FP32" />
			</output>
		</layer>
		<layer id="396" name="p2o.Clip.6/fq_output_0/fq_output_0/output_high" type="Const" version="opset1">
			<data element_type="f32" shape="" offset="6438" size="4" />
			<output>
				<port id="0" precision="FP32" />
			</output>
		</layer>
		<layer id="397" name="p2o.Clip.6/fq_output_0/fq_output_0" type="FakeQuantize" version="opset1">
			<data levels="256" auto_broadcast="numpy" />
			<input>
				<port id="0" precision="FP32">
					<dim>-1</dim>
					<dim>48</dim>
					<dim>-1</dim>
					<dim>-1</dim>
				</port>
				<port id="1" precision="FP32" />
				<port id="2" precision="FP32" />
				<port id="3" precision="FP32" />
				<port id="4" precision="FP32" />
			</input>
			<output>
				<port id="5" precision="FP32">
					<dim>-1</dim>
					<dim>48</dim>
					<dim>-1</dim>
					<dim>-1</dim>
				</port>
			</output>
		</layer>
		<layer id="398" name="p2o.Mul.22" type="Multiply" version="opset1">
			<data auto_broadcast="numpy" />
			<input>
				<port id="0" precision="FP32">
					<dim>-1</dim>
					<dim>48</dim>
					<dim>-1</dim>
					<dim>-1</dim>
				</port>
				<port id="1" precision="FP32">
					<dim>-1</dim>
					<dim>48</dim>
					<dim>-1</dim>
					<dim>-1</dim>
				</port>
			</input>
			<output>
				<port id="2" precision="FP32" names="p2o.Mul.23">
					<dim>-1</dim>
					<dim>48</dim>
					<dim>-1</dim>
					<dim>-1</dim>
				</port>
			</output>
		</layer>
		<layer id="399" name="Constant_2973_compressed" type="Const" version="opset1">
			<data element_type="f16" shape="" offset="1334" size="2" />
			<output>
				<port id="0" precision="FP16" />
			</output>
		</layer>
		<layer id="400" name="Constant_2973" type="Convert" version="opset1">
			<data destination_type="f32" />
			<rt_info>
				<attribute name="decompression" version="0" />
			</rt_info>
			<input>
				<port id="0" precision="FP16" />
			</input>
			<output>
				<port id="1" precision="FP32" />
			</output>
		</layer>
		<layer id="401" name="p2o.Div.3" type="Multiply" version="opset1">
			<data auto_broadcast="numpy" />
			<input>
				<port id="0" precision="FP32">
					<dim>-1</dim>
					<dim>48</dim>
					<dim>-1</dim>
					<dim>-1</dim>
				</port>
				<port id="1" precision="FP32" />
			</input>
			<output>
				<port id="2" precision="FP32" names="hardswish_61.tmp_0">
					<dim>-1</dim>
					<dim>48</dim>
					<dim>-1</dim>
					<dim>-1</dim>
				</port>
			</output>
		</layer>
		<layer id="402" name="p2o.Mul.24" type="Multiply" version="opset1">
			<data auto_broadcast="numpy" />
			<input>
				<port id="0" precision="FP32">
					<dim>1</dim>
				</port>
				<port id="1" precision="FP32">
					<dim>-1</dim>
					<dim>48</dim>
					<dim>-1</dim>
					<dim>-1</dim>
				</port>
			</input>
			<output>
				<port id="2" precision="FP32" names="p2o.Mul.25">
					<dim>-1</dim>
					<dim>48</dim>
					<dim>-1</dim>
					<dim>-1</dim>
				</port>
			</output>
		</layer>
		<layer id="403" name="whswish_b_5.w_1_compressed" type="Const" version="opset1">
			<data element_type="f16" shape="1" offset="6442" size="2" />
			<output>
				<port id="0" precision="FP16" names="whswish_b_5.w_1">
					<dim>1</dim>
				</port>
			</output>
		</layer>
		<layer id="404" name="whswish_b_5.w_1" type="Convert" version="opset1">
			<data destination_type="f32" />
			<rt_info>
				<attribute name="decompression" version="0" />
			</rt_info>
			<input>
				<port id="0" precision="FP16">
					<dim>1</dim>
				</port>
			</input>
			<output>
				<port id="1" precision="FP32">
					<dim>1</dim>
				</port>
			</output>
		</layer>
		<layer id="405" name="p2o.Add.34" type="Add" version="opset1">
			<data auto_broadcast="numpy" />
			<input>
				<port id="0" precision="FP32">
					<dim>-1</dim>
					<dim>48</dim>
					<dim>-1</dim>
					<dim>-1</dim>
				</port>
				<port id="1" precision="FP32">
					<dim>1</dim>
				</port>
			</input>
			<output>
				<port id="2" precision="FP32" names="p2o.Add.35">
					<dim>-1</dim>
					<dim>48</dim>
					<dim>-1</dim>
					<dim>-1</dim>
				</port>
			</output>
		</layer>
		<layer id="406" name="p2o.Add.34/fq_output_0/input_low" type="Const" version="opset1">
			<data element_type="f32" shape="" offset="6444" size="4" />
			<output>
				<port id="0" precision="FP32" />
			</output>
		</layer>
		<layer id="407" name="p2o.Add.34/fq_output_0/input_high" type="Const" version="opset1">
			<data element_type="f32" shape="" offset="6448" size="4" />
			<output>
				<port id="0" precision="FP32" />
			</output>
		</layer>
		<layer id="408" name="p2o.Add.34/fq_output_0/output_low" type="Const" version="opset1">
			<data element_type="f32" shape="" offset="6444" size="4" />
			<output>
				<port id="0" precision="FP32" />
			</output>
		</layer>
		<layer id="409" name="p2o.Add.34/fq_output_0/output_high" type="Const" version="opset1">
			<data element_type="f32" shape="" offset="6448" size="4" />
			<output>
				<port id="0" precision="FP32" />
			</output>
		</layer>
		<layer id="410" name="p2o.Add.34/fq_output_0" type="FakeQuantize" version="opset1">
			<data levels="256" auto_broadcast="numpy" />
			<input>
				<port id="0" precision="FP32">
					<dim>-1</dim>
					<dim>48</dim>
					<dim>-1</dim>
					<dim>-1</dim>
				</port>
				<port id="1" precision="FP32" />
				<port id="2" precision="FP32" />
				<port id="3" precision="FP32" />
				<port id="4" precision="FP32" />
			</input>
			<output>
				<port id="5" precision="FP32">
					<dim>-1</dim>
					<dim>48</dim>
					<dim>-1</dim>
					<dim>-1</dim>
				</port>
			</output>
		</layer>
		<layer id="411" name="p2o.Add.34/fq_output_0/fq_output_0/input_low" type="Const" version="opset1">
			<data element_type="f32" shape="" offset="6452" size="4" />
			<output>
				<port id="0" precision="FP32" />
			</output>
		</layer>
		<layer id="412" name="p2o.Add.34/fq_output_0/fq_output_0/input_high" type="Const" version="opset1">
			<data element_type="f32" shape="" offset="6456" size="4" />
			<output>
				<port id="0" precision="FP32" />
			</output>
		</layer>
		<layer id="413" name="p2o.Add.34/fq_output_0/fq_output_0/output_low" type="Const" version="opset1">
			<data element_type="f32" shape="" offset="6452" size="4" />
			<output>
				<port id="0" precision="FP32" />
			</output>
		</layer>
		<layer id="414" name="p2o.Add.34/fq_output_0/fq_output_0/output_high" type="Const" version="opset1">
			<data element_type="f32" shape="" offset="6456" size="4" />
			<output>
				<port id="0" precision="FP32" />
			</output>
		</layer>
		<layer id="415" name="p2o.Add.34/fq_output_0/fq_output_0" type="FakeQuantize" version="opset1">
			<data levels="256" auto_broadcast="numpy" />
			<input>
				<port id="0" precision="FP32">
					<dim>-1</dim>
					<dim>48</dim>
					<dim>-1</dim>
					<dim>-1</dim>
				</port>
				<port id="1" precision="FP32" />
				<port id="2" precision="FP32" />
				<port id="3" precision="FP32" />
				<port id="4" precision="FP32" />
			</input>
			<output>
				<port id="5" precision="FP32">
					<dim>-1</dim>
					<dim>48</dim>
					<dim>-1</dim>
					<dim>-1</dim>
				</port>
			</output>
		</layer>
		<layer id="416" name="Constant_214471" type="Const" version="opset1">
			<data element_type="i8" shape="48, 48, 1, 1" offset="6460" size="2304" />
			<output>
				<port id="0" precision="I8">
					<dim>48</dim>
					<dim>48</dim>
					<dim>1</dim>
					<dim>1</dim>
				</port>
			</output>
		</layer>
		<layer id="417" name="Convert_214472" type="Convert" version="opset1">
			<data destination_type="f32" />
			<input>
				<port id="0" precision="I8">
					<dim>48</dim>
					<dim>48</dim>
					<dim>1</dim>
					<dim>1</dim>
				</port>
			</input>
			<output>
				<port id="1" precision="FP32">
					<dim>48</dim>
					<dim>48</dim>
					<dim>1</dim>
					<dim>1</dim>
				</port>
			</output>
		</layer>
		<layer id="418" name="Constant_214473" type="Const" version="opset1">
			<data element_type="f32" shape="48, 1, 1, 1" offset="8764" size="192" />
			<output>
				<port id="0" precision="FP32">
					<dim>48</dim>
					<dim>1</dim>
					<dim>1</dim>
					<dim>1</dim>
				</port>
			</output>
		</layer>
		<layer id="419" name="p2o.Conv.6/WithoutBiases/fq_weights_1" type="Multiply" version="opset1">
			<data auto_broadcast="numpy" />
			<input>
				<port id="0" precision="FP32">
					<dim>48</dim>
					<dim>48</dim>
					<dim>1</dim>
					<dim>1</dim>
				</port>
				<port id="1" precision="FP32">
					<dim>48</dim>
…
		<edge from-layer="2147" from-port="0" to-layer="2149" to-port="3" />
		<edge from-layer="2148" from-port="0" to-layer="2149" to-port="4" />
		<edge from-layer="2149" from-port="5" to-layer="2150" to-port="1" />
		<edge from-layer="2150" from-port="2" to-layer="2155" to-port="0" />
		<edge from-layer="2151" from-port="0" to-layer="2155" to-port="1" />
		<edge from-layer="2152" from-port="0" to-layer="2155" to-port="2" />
		<edge from-layer="2153" from-port="0" to-layer="2155" to-port="3" />
		<edge from-layer="2154" from-port="0" to-layer="2155" to-port="4" />
		<edge from-layer="2155" from-port="5" to-layer="2160" to-port="0" />
		<edge from-layer="2156" from-port="0" to-layer="2160" to-port="1" />
		<edge from-layer="2157" from-port="0" to-layer="2160" to-port="2" />
		<edge from-layer="2158" from-port="0" to-layer="2160" to-port="3" />
		<edge from-layer="2159" from-port="0" to-layer="2160" to-port="4" />
		<edge from-layer="2160" from-port="5" to-layer="2165" to-port="0" />
		<edge from-layer="2160" from-port="5" to-layer="2384" to-port="0" />
		<edge from-layer="2161" from-port="0" to-layer="2162" to-port="0" />
		<edge from-layer="2162" from-port="1" to-layer="2164" to-port="0" />
		<edge from-layer="2163" from-port="0" to-layer="2164" to-port="1" />
		<edge from-layer="2164" from-port="2" to-layer="2165" to-port="1" />
		<edge from-layer="2165" from-port="2" to-layer="2170" to-port="0" />
		<edge from-layer="2166" from-port="0" to-layer="2170" to-port="1" />
		<edge from-layer="2167" from-port="0" to-layer="2170" to-port="2" />
		<edge from-layer="2168" from-port="0" to-layer="2170" to-port="3" />
		<edge from-layer="2169" from-port="0" to-layer="2170" to-port="4" />
		<edge from-layer="2170" from-port="5" to-layer="2175" to-port="0" />
		<edge from-layer="2171" from-port="0" to-layer="2175" to-port="1" />
		<edge from-layer="2172" from-port="0" to-layer="2175" to-port="2" />
		<edge from-layer="2173" from-port="0" to-layer="2175" to-port="3" />
		<edge from-layer="2174" from-port="0" to-layer="2175" to-port="4" />
		<edge from-layer="2175" from-port="5" to-layer="2177" to-port="0" />
		<edge from-layer="2175" from-port="5" to-layer="2182" to-port="0" />
		<edge from-layer="2175" from-port="5" to-layer="2235" to-port="0" />
		<edge from-layer="2175" from-port="5" to-layer="2246" to-port="0" />
		<edge from-layer="2176" from-port="0" to-layer="2181" to-port="0" />
		<edge from-layer="2177" from-port="1" to-layer="2178" to-port="0" />
		<edge from-layer="2178" from-port="1" to-layer="2179" to-port="0" />
		<edge from-layer="2179" from-port="1" to-layer="2181" to-port="1" />
		<edge from-layer="2180" from-port="0" to-layer="2181" to-port="2" />
		<edge from-layer="2181" from-port="3" to-layer="2182" to-port="1" />
		<edge from-layer="2182" from-port="2" to-layer="2187" to-port="0" />
		<edge from-layer="2183" from-port="0" to-layer="2187" to-port="1" />
		<edge from-layer="2184" from-port="0" to-layer="2187" to-port="2" />
		<edge from-layer="2185" from-port="0" to-layer="2187" to-port="3" />
		<edge from-layer="2186" from-port="0" to-layer="2187" to-port="4" />
		<edge from-layer="2187" from-port="5" to-layer="2192" to-port="0" />
		<edge from-layer="2188" from-port="0" to-layer="2192" to-port="1" />
		<edge from-layer="2189" from-port="0" to-layer="2192" to-port="2" />
		<edge from-layer="2190" from-port="0" to-layer="2192" to-port="3" />
		<edge from-layer="2191" from-port="0" to-layer="2192" to-port="4" />
		<edge from-layer="2192" from-port="5" to-layer="2197" to-port="0" />
		<edge from-layer="2193" from-port="0" to-layer="2194" to-port="0" />
		<edge from-layer="2194" from-port="1" to-layer="2196" to-port="0" />
		<edge from-layer="2195" from-port="0" to-layer="2196" to-port="1" />
		<edge from-layer="2196" from-port="2" to-layer="2197" to-port="1" />
		<edge from-layer="2197" from-port="2" to-layer="2200" to-port="0" />
		<edge from-layer="2198" from-port="0" to-layer="2199" to-port="0" />
		<edge from-layer="2199" from-port="1" to-layer="2200" to-port="1" />
		<edge from-layer="2200" from-port="2" to-layer="2201" to-port="0" />
		<edge from-layer="2201" from-port="1" to-layer="2206" to-port="0" />
		<edge from-layer="2202" from-port="0" to-layer="2206" to-port="1" />
		<edge from-layer="2203" from-port="0" to-layer="2206" to-port="2" />
		<edge from-layer="2204" from-port="0" to-layer="2206" to-port="3" />
		<edge from-layer="2205" from-port="0" to-layer="2206" to-port="4" />
		<edge from-layer="2206" from-port="5" to-layer="2211" to-port="0" />
		<edge from-layer="2207" from-port="0" to-layer="2211" to-port="1" />
		<edge from-layer="2208" from-port="0" to-layer="2211" to-port="2" />
		<edge from-layer="2209" from-port="0" to-layer="2211" to-port="3" />
		<edge from-layer="2210" from-port="0" to-layer="2211" to-port="4" />
		<edge from-layer="2211" from-port="5" to-layer="2216" to-port="0" />
		<edge from-layer="2212" from-port="0" to-layer="2213" to-port="0" />
		<edge from-layer="2213" from-port="1" to-layer="2215" to-port="0" />
		<edge from-layer="2214" from-port="0" to-layer="2215" to-port="1" />
		<edge from-layer="2215" from-port="2" to-layer="2216" to-port="1" />
		<edge from-layer="2216" from-port="2" to-layer="2219" to-port="0" />
		<edge from-layer="2217" from-port="0" to-layer="2218" to-port="0" />
		<edge from-layer="2218" from-port="1" to-layer="2219" to-port="1" />
		<edge from-layer="2219" from-port="2" to-layer="2224" to-port="0" />
		<edge from-layer="2220" from-port="0" to-layer="2221" to-port="0" />
		<edge from-layer="2221" from-port="1" to-layer="2224" to-port="1" />
		<edge from-layer="2222" from-port="0" to-layer="2223" to-port="0" />
		<edge from-layer="2223" from-port="1" to-layer="2224" to-port="2" />
		<edge from-layer="2224" from-port="3" to-layer="2229" to-port="0" />
		<edge from-layer="2225" from-port="0" to-layer="2229" to-port="1" />
		<edge from-layer="2226" from-port="0" to-layer="2229" to-port="2" />
		<edge from-layer="2227" from-port="0" to-layer="2229" to-port="3" />
		<edge from-layer="2228" from-port="0" to-layer="2229" to-port="4" />
		<edge from-layer="2229" from-port="5" to-layer="2234" to-port="0" />
		<edge from-layer="2230" from-port="0" to-layer="2234" to-port="1" />
		<edge from-layer="2231" from-port="0" to-layer="2234" to-port="2" />
		<edge from-layer="2232" from-port="0" to-layer="2234" to-port="3" />
		<edge from-layer="2233" from-port="0" to-layer="2234" to-port="4" />
		<edge from-layer="2234" from-port="5" to-layer="2235" to-port="1" />
		<edge from-layer="2235" from-port="2" to-layer="2240" to-port="0" />
		<edge from-layer="2236" from-port="0" to-layer="2240" to-port="1" />
		<edge from-layer="2237" from-port="0" to-layer="2240" to-port="2" />
		<edge from-layer="2238" from-port="0" to-layer="2240" to-port="3" />
		<edge from-layer="2239" from-port="0" to-layer="2240" to-port="4" />
		<edge from-layer="2240" from-port="5" to-layer="2245" to-port="0" />
		<edge from-layer="2241" from-port="0" to-layer="2245" to-port="1" />
		<edge from-layer="2242" from-port="0" to-layer="2245" to-port="2" />
		<edge from-layer="2243" from-port="0" to-layer="2245" to-port="3" />
		<edge from-layer="2244" from-port="0" to-layer="2245" to-port="4" />
		<edge from-layer="2245" from-port="5" to-layer="2246" to-port="1" />
		<edge from-layer="2246" from-port="2" to-layer="2251" to-port="0" />
		<edge from-layer="2247" from-port="0" to-layer="2251" to-port="1" />
		<edge from-layer="2248" from-port="0" to-layer="2251" to-port="2" />
		<edge from-layer="2249" from-port="0" to-layer="2251" to-port="3" />
		<edge from-layer="2250" from-port="0" to-layer="2251" to-port="4" />
		<edge from-layer="2251" from-port="5" to-layer="2256" to-port="0" />
		<edge from-layer="2252" from-port="0" to-layer="2256" to-port="1" />
		<edge from-layer="2253" from-port="0" to-layer="2256" to-port="2" />
		<edge from-layer="2254" from-port="0" to-layer="2256" to-port="3" />
		<edge from-layer="2255" from-port="0" to-layer="2256" to-port="4" />
		<edge from-layer="2256" from-port="5" to-layer="2258" to-port="0" />
		<edge from-layer="2257" from-port="0" to-layer="2258" to-port="1" />
		<edge from-layer="2258" from-port="2" to-layer="2263" to-port="0" />
		<edge from-layer="2259" from-port="0" to-layer="2263" to-port="1" />
		<edge from-layer="2260" from-port="0" to-layer="2263" to-port="2" />
		<edge from-layer="2261" from-port="0" to-layer="2263" to-port="3" />
		<edge from-layer="2262" from-port="0" to-layer="2263" to-port="4" />
		<edge from-layer="2263" from-port="5" to-layer="2268" to-port="0" />
		<edge from-layer="2264" from-port="0" to-layer="2268" to-port="1" />
		<edge from-layer="2265" from-port="0" to-layer="2268" to-port="2" />
		<edge from-layer="2266" from-port="0" to-layer="2268" to-port="3" />
		<edge from-layer="2267" from-port="0" to-layer="2268" to-port="4" />
		<edge from-layer="2268" from-port="5" to-layer="2747" to-port="1" />
		<edge from-layer="2269" from-port="0" to-layer="2270" to-port="0" />
		<edge from-layer="2270" from-port="1" to-layer="2272" to-port="0" />
		<edge from-layer="2271" from-port="0" to-layer="2272" to-port="1" />
		<edge from-layer="2272" from-port="2" to-layer="2273" to-port="1" />
		<edge from-layer="2273" from-port="2" to-layer="2276" to-port="0" />
		<edge from-layer="2274" from-port="0" to-layer="2275" to-port="0" />
		<edge from-layer="2275" from-port="1" to-layer="2276" to-port="1" />
		<edge from-layer="2276" from-port="2" to-layer="2281" to-port="0" />
		<edge from-layer="2277" from-port="0" to-layer="2281" to-port="1" />
		<edge from-layer="2278" from-port="0" to-layer="2281" to-port="2" />
		<edge from-layer="2279" from-port="0" to-layer="2281" to-port="3" />
		<edge from-layer="2280" from-port="0" to-layer="2281" to-port="4" />
		<edge from-layer="2281" from-port="5" to-layer="2286" to-port="0" />
		<edge from-layer="2282" from-port="0" to-layer="2286" to-port="1" />
		<edge from-layer="2283" from-port="0" to-layer="2286" to-port="2" />
		<edge from-layer="2284" from-port="0" to-layer="2286" to-port="3" />
		<edge from-layer="2285" from-port="0" to-layer="2286" to-port="4" />
		<edge from-layer="2286" from-port="5" to-layer="2291" to-port="0" />
		<edge from-layer="2287" from-port="0" to-layer="2288" to-port="0" />
		<edge from-layer="2288" from-port="1" to-layer="2290" to-port="0" />
		<edge from-layer="2289" from-port="0" to-layer="2290" to-port="1" />
		<edge from-layer="2290" from-port="2" to-layer="2291" to-port="1" />
		<edge from-layer="2291" from-port="2" to-layer="2296" to-port="0" />
		<edge from-layer="2292" from-port="0" to-layer="2296" to-port="1" />
		<edge from-layer="2293" from-port="0" to-layer="2296" to-port="2" />
		<edge from-layer="2294" from-port="0" to-layer="2296" to-port="3" />
		<edge from-layer="2295" from-port="0" to-layer="2296" to-port="4" />
		<edge from-layer="2296" from-port="5" to-layer="2301" to-port="0" />
		<edge from-layer="2297" from-port="0" to-layer="2301" to-port="1" />
		<edge from-layer="2298" from-port="0" to-layer="2301" to-port="2" />
		<edge from-layer="2299" from-port="0" to-layer="2301" to-port="3" />
		<edge from-layer="2300" from-port="0" to-layer="2301" to-port="4" />
		<edge from-layer="2301" from-port="5" to-layer="2303" to-port="0" />
		<edge from-layer="2301" from-port="5" to-layer="2361" to-port="0" />
		<edge from-layer="2301" from-port="5" to-layer="2372" to-port="0" />
		<edge from-layer="2301" from-port="5" to-layer="2308" to-port="0" />
		<edge from-layer="2302" from-port="0" to-layer="2307" to-port="0" />
		<edge from-layer="2303" from-port="1" to-layer="2304" to-port="0" />
		<edge from-layer="2304" from-port="1" to-layer="2305" to-port="0" />
		<edge from-layer="2305" from-port="1" to-layer="2307" to-port="1" />
		<edge from-layer="2306" from-port="0" to-layer="2307" to-port="2" />
		<edge from-layer="2307" from-port="3" to-layer="2308" to-port="1" />
		<edge from-layer="2308" from-port="2" to-layer="2313" to-port="0" />
		<edge from-layer="2309" from-port="0" to-layer="2313" to-port="1" />
		<edge from-layer="2310" from-port="0" to-layer="2313" to-port="2" />
		<edge from-layer="2311" from-port="0" to-layer="2313" to-port="3" />
		<edge from-layer="2312" from-port="0" to-layer="2313" to-port="4" />
		<edge from-layer="2313" from-port="5" to-layer="2318" to-port="0" />
		<edge from-layer="2314" from-port="0" to-layer="2318" to-port="1" />
		<edge from-layer="2315" from-port="0" to-layer="2318" to-port="2" />
		<edge from-layer="2316" from-port="0" to-layer="2318" to-port="3" />
		<edge from-layer="2317" from-port="0" to-layer="2318" to-port="4" />
		<edge from-layer="2318" from-port="5" to-layer="2323" to-port="0" />
		<edge from-layer="2319" from-port="0" to-layer="2320" to-port="0" />
		<edge from-layer="2320" from-port="1" to-layer="2322" to-port="0" />
		<edge from-layer="2321" from-port="0" to-layer="2322" to-port="1" />
		<edge from-layer="2322" from-port="2" to-layer="2323" to-port="1" />
		<edge from-layer="2323" from-port="2" to-layer="2326" to-port="0" />
		<edge from-layer="2324" from-port="0" to-layer="2325" to-port="0" />
		<edge from-layer="2325" from-port="1" to-layer="2326" to-port="1" />
		<edge from-layer="2326" from-port="2" to-layer="2327" to-port="0" />
		<edge from-layer="2327" from-port="1" to-layer="2332" to-port="0" />
		<edge from-layer="2328" from-port="0" to-layer="2332" to-port="1" />
		<edge from-layer="2329" from-port="0" to-layer="2332" to-port="2" />
		<edge from-layer="2330" from-port="0" to-layer="2332" to-port="3" />
		<edge from-layer="2331" from-port="0" to-layer="2332" to-port="4" />
		<edge from-layer="2332" from-port="5" to-layer="2337" to-port="0" />
		<edge from-layer="2333" from-port="0" to-layer="2337" to-port="1" />
		<edge from-layer="2334" from-port="0" to-layer="2337" to-port="2" />
		<edge from-layer="2335" from-port="0" to-layer="2337" to-port="3" />
		<edge from-layer="2336" from-port="0" to-layer="2337" to-port="4" />
		<edge from-layer="2337" from-port="5" to-layer="2342" to-port="0" />
		<edge from-layer="2338" from-port="0" to-layer="2339" to-port="0" />
		<edge from-layer="2339" from-port="1" to-layer="2341" to-port="0" />
		<edge from-layer="2340" from-port="0" to-layer="2341" to-port="1" />
		<edge from-layer="2341" from-port="2" to-layer="2342" to-port="1" />
		<edge from-layer="2342" from-port="2" to-layer="2345" to-port="0" />
		<edge from-layer="2343" from-port="0" to-layer="2344" to-port="0" />
		<edge from-layer="2344" from-port="1" to-layer="2345" to-port="1" />
		<edge from-layer="2345" from-port="2" to-layer="2350" to-port="0" />
		<edge from-layer="2346" from-port="0" to-layer="2347" to-port="0" />
		<edge from-layer="2347" from-port="1" to-layer="2350" to-port="1" />
		<edge from-layer="2348" from-port="0" to-layer="2349" to-port="0" />
		<edge from-layer="2349" from-port="1" to-layer="2350" to-port="2" />
		<edge from-layer="2350" from-port="3" to-layer="2355" to-port="0" />
		<edge from-layer="2351" from-port="0" to-layer="2355" to-port="1" />
		<edge from-layer="2352" from-port="0" to-layer="2355" to-port="2" />
		<edge from-layer="2353" from-port="0" to-layer="2355" to-port="3" />
		<edge from-layer="2354" from-port="0" to-layer="2355" to-port="4" />
		<edge from-layer="2355" from-port="5" to-layer="2360" to-port="0" />
		<edge from-layer="2356" from-port="0" to-layer="2360" to-port="1" />
		<edge from-layer="2357" from-port="0" to-layer="2360" to-port="2" />
		<edge from-layer="2358" from-port="0" to-layer="2360" to-port="3" />
		<edge from-layer="2359" from-port="0" to-layer="2360" to-port="4" />
		<edge from-layer="2360" from-port="5" to-layer="2361" to-port="1" />
		<edge from-layer="2361" from-port="2" to-layer="2366" to-port="0" />
		<edge from-layer="2362" from-port="0" to-layer="2366" to-port="1" />
		<edge from-layer="2363" from-port="0" to-layer="2366" to-port="2" />
		<edge from-layer="2364" from-port="0" to-layer="2366" to-port="3" />
		<edge from-layer="2365" from-port="0" to-layer="2366" to-port="4" />
		<edge from-layer="2366" from-port="5" to-layer="2371" to-port="0" />
		<edge from-layer="2367" from-port="0" to-layer="2371" to-port="1" />
		<edge from-layer="2368" from-port="0" to-layer="2371" to-port="2" />
		<edge from-layer="2369" from-port="0" to-layer="2371" to-port="3" />
		<edge from-layer="2370" from-port="0" to-layer="2371" to-port="4" />
		<edge from-layer="2371" from-port="5" to-layer="2372" to-port="1" />
		<edge from-layer="2372" from-port="2" to-layer="2377" to-port="0" />
		<edge from-layer="2373" from-port="0" to-layer="2377" to-port="1" />
		<edge from-layer="2374" from-port="0" to-layer="2377" to-port="2" />
		<edge from-layer="2375" from-port="0" to-layer="2377" to-port="3" />
		<edge from-layer="2376" from-port="0" to-layer="2377" to-port="4" />
		<edge from-layer="2377" from-port="5" to-layer="2382" to-port="0" />
		<edge from-layer="2378" from-port="0" to-layer="2382" to-port="1" />
		<edge from-layer="2379" from-port="0" to-layer="2382" to-port="2" />
		<edge from-layer="2380" from-port="0" to-layer="2382" to-port="3" />
		<edge from-layer="2381" from-port="0" to-layer="2382" to-port="4" />
		<edge from-layer="2382" from-port="5" to-layer="2395" to-port="0" />
		<edge from-layer="2383" from-port="0" to-layer="2384" to-port="1" />
		<edge from-layer="2384" from-port="2" to-layer="2389" to-port="0" />
		<edge from-layer="2385" from-port="0" to-layer="2389" to-port="1" />
		<edge from-layer="2386" from-port="0" to-layer="2389" to-port="2" />
		<edge from-layer="2387" from-port="0" to-layer="2389" to-port="3" />
		<edge from-layer="2388" from-port="0" to-layer="2389" to-port="4" />
		<edge from-layer="2389" from-port="5" to-layer="2394" to-port="0" />
		<edge from-layer="2390" from-port="0" to-layer="2394" to-port="1" />
		<edge from-layer="2391" from-port="0" to-layer="2394" to-port="2" />
		<edge from-layer="2392" from-port="0" to-layer="2394" to-port="3" />
		<edge from-layer="2393" from-port="0" to-layer="2394" to-port="4" />
		<edge from-layer="2394" from-port="5" to-layer="2395" to-port="1" />
		<edge from-layer="2395" from-port="2" to-layer="2400" to-port="0" />
		<edge from-layer="2396" from-port="0" to-layer="2400" to-port="1" />
		<edge from-layer="2397" from-port="0" to-layer="2400" to-port="2" />
		<edge from-layer="2398" from-port="0" to-layer="2400" to-port="3" />
		<edge from-layer="2399" from-port="0" to-layer="2400" to-port="4" />
		<edge from-layer="2400" from-port="5" to-layer="2405" to-port="0" />
		<edge from-layer="2401" from-port="0" to-layer="2405" to-port="1" />
		<edge from-layer="2402" from-port="0" to-layer="2405" to-port="2" />
		<edge from-layer="2403" from-port="0" to-layer="2405" to-port="3" />
		<edge from-layer="2404" from-port="0" to-layer="2405" to-port="4" />
		<edge from-layer="2405" from-port="5" to-layer="2629" to-port="0" />
		<edge from-layer="2405" from-port="5" to-layer="2410" to-port="0" />
		<edge from-layer="2406" from-port="0" to-layer="2407" to-port="0" />
		<edge from-layer="2407" from-port="1" to-layer="2409" to-port="0" />
		<edge from-layer="2408" from-port="0" to-layer="2409" to-port="1" />
		<edge from-layer="2409" from-port="2" to-layer="2410" to-port="1" />
		<edge from-layer="2410" from-port="2" to-layer="2415" to-port="0" />
		<edge from-layer="2411" from-port="0" to-layer="2415" to-port="1" />
		<edge from-layer="2412" from-port="0" to-layer="2415" to-port="2" />
		<edge from-layer="2413" from-port="0" to-layer="2415" to-port="3" />
		<edge from-layer="2414" from-port="0" to-layer="2415" to-port="4" />
		<edge from-layer="2415" from-port="5" to-layer="2420" to-port="0" />
		<edge from-layer="2416" from-port="0" to-layer="2420" to-port="1" />
		<edge from-layer="2417" from-port="0" to-layer="2420" to-port="2" />
		<edge from-layer="2418" from-port="0" to-layer="2420" to-port="3" />
		<edge from-layer="2419" from-port="0" to-layer="2420" to-port="4" />
		<edge from-layer="2420" from-port="5" to-layer="2422" to-port="0" />
		<edge from-layer="2420" from-port="5" to-layer="2427" to-port="0" />
		<edge from-layer="2420" from-port="5" to-layer="2480" to-port="0" />
		<edge from-layer="2420" from-port="5" to-layer="2491" to-port="0" />
		<edge from-layer="2421" from-port="0" to-layer="2426" to-port="0" />
		<edge from-layer="2422" from-port="1" to-layer="2423" to-port="0" />
		<edge from-layer="2423" from-port="1" to-layer="2424" to-port="0" />
		<edge from-layer="2424" from-port="1" to-layer="2426" to-port="1" />
		<edge from-layer="2425" from-port="0" to-layer="2426" to-port="2" />
		<edge from-layer="2426" from-port="3" to-layer="2427" to-port="1" />
		<edge from-layer="2427" from-port="2" to-layer="2432" to-port="0" />
		<edge from-layer="2428" from-port="0" to-layer="2432" to-port="1" />
		<edge from-layer="2429" from-port="0" to-layer="2432" to-port="2" />
		<edge from-layer="2430" from-port="0" to-layer="2432" to-port="3" />
		<edge from-layer="2431" from-port="0" to-layer="2432" to-port="4" />
		<edge from-layer="2432" from-port="5" to-layer="2437" to-port="0" />
		<edge from-layer="2433" from-port="0" to-layer="2437" to-port="1" />
		<edge from-layer="2434" from-port="0" to-layer="2437" to-port="2" />
		<edge from-layer="2435" from-port="0" to-layer="2437" to-port="3" />
		<edge from-layer="2436" from-port="0" to-layer="2437" to-port="4" />
		<edge from-layer="2437" from-port="5" to-layer="2442" to-port="0" />
		<edge from-layer="2438" from-port="0" to-layer="2439" to-port="0" />
		<edge from-layer="2439" from-port="1" to-layer="2441" to-port="0" />
		<edge from-layer="2440" from-port="0" to-layer="2441" to-port="1" />
		<edge from-layer="2441" from-port="2" to-layer="2442" to-port="1" />
		<edge from-layer="2442" from-port="2" to-layer="2445" to-port="0" />
		<edge from-layer="2443" from-port="0" to-layer="2444" to-port="0" />
		<edge from-layer="2444" from-port="1" to-layer="2445" to-port="1" />
		<edge from-layer="2445" from-port="2" to-layer="2446" to-port="0" />
		<edge from-layer="2446" from-port="1" to-layer="2451" to-port="0" />
		<edge from-layer="2447" from-port="0" to-layer="2451" to-port="1" />
		<edge from-layer="2448" from-port="0" to-layer="2451" to-port="2" />
		<edge from-layer="2449" from-port="0" to-layer="2451" to-port="3" />
		<edge from-layer="2450" from-port="0" to-layer="2451" to-port="4" />
		<edge from-layer="2451" from-port="5" to-layer="2456" to-port="0" />
		<edge from-layer="2452" from-port="0" to-layer="2456" to-port="1" />
		<edge from-layer="2453" from-port="0" to-layer="2456" to-port="2" />
		<edge from-layer="2454" from-port="0" to-layer="2456" to-port="3" />
		<edge from-layer="2455" from-port="0" to-layer="2456" to-port="4" />
		<edge from-layer="2456" from-port="5" to-layer="2461" to-port="0" />
		<edge from-layer="2457" from-port="0" to-layer="2458" to-port="0" />
		<edge from-layer="2458" from-port="1" to-layer="2460" to-port="0" />
		<edge from-layer="2459" from-port="0" to-layer="2460" to-port="1" />
		<edge from-layer="2460" from-port="2" to-layer="2461" to-port="1" />
		<edge from-layer="2461" from-port="2" to-layer="2464" to-port="0" />
		<edge from-layer="2462" from-port="0" to-layer="2463" to-port="0" />
		<edge from-layer="2463" from-port="1" to-layer="2464" to-port="1" />
		<edge from-layer="2464" from-port="2" to-layer="2469" to-port="0" />
		<edge from-layer="2465" from-port="0" to-layer="2466" to-port="0" />
		<edge from-layer="2466" from-port="1" to-layer="2469" to-port="1" />
		<edge from-layer="2467" from-port="0" to-layer="2468" to-port="0" />
		<edge from-layer="2468" from-port="1" to-layer="2469" to-port="2" />
		<edge from-layer="2469" from-port="3" to-layer="2474" to-port="0" />
		<edge from-layer="2470" from-port="0" to-layer="2474" to-port="1" />
		<edge from-layer="2471" from-port="0" to-layer="2474" to-port="2" />
		<edge from-layer="2472" from-port="0" to-layer="2474" to-port="3" />
		<edge from-layer="2473" from-port="0" to-layer="2474" to-port="4" />
		<edge from-layer="2474" from-port="5" to-layer="2479" to-port="0" />
		<edge from-layer="2475" from-port="0" to-layer="2479" to-port="1" />
		<edge from-layer="2476" from-port="0" to-layer="2479" to-port="2" />
		<edge from-layer="2477" from-port="0" to-layer="2479" to-port="3" />
		<edge from-layer="2478" from-port="0" to-layer="2479" to-port="4" />
		<edge from-layer="2479" from-port="5" to-layer="2480" to-port="1" />
		<edge from-layer="2480" from-port="2" to-layer="2485" to-port="0" />
		<edge from-layer="2481" from-port="0" to-layer="2485" to-port="1" />
		<edge from-layer="2482" from-port="0" to-layer="2485" to-port="2" />
		<edge from-layer="2483" from-port="0" to-layer="2485" to-port="3" />
		<edge from-layer="2484" from-port="0" to-layer="2485" to-port="4" />
		<edge from-layer="2485" from-port="5" to-layer="2490" to-port="0" />
		<edge from-layer="2486" from-port="0" to-layer="2490" to-port="1" />
		<edge from-layer="2487" from-port="0" to-layer="2490" to-port="2" />
		<edge from-layer="2488" from-port="0" to-layer="2490" to-port="3" />
		<edge from-layer="2489" from-port="0" to-layer="2490" to-port="4" />
		<edge from-layer="2490" from-port="5" to-layer="2491" to-port="1" />
		<edge from-layer="2491" from-port="2" to-layer="2496" to-port="0" />
		<edge from-layer="2492" from-port="0" to-layer="2496" to-port="1" />
		<edge from-layer="2493" from-port="0" to-layer="2496" to-port="2" />
		<edge from-layer="2494" from-port="0" to-layer="2496" to-port="3" />
		<edge from-layer="2495" from-port="0" to-layer="2496" to-port="4" />
		<edge from-layer="2496" from-port="5" to-layer="2501" to-port="0" />
		<edge from-layer="2497" from-port="0" to-layer="2501" to-port="1" />
		<edge from-layer="2498" from-port="0" to-layer="2501" to-port="2" />
		<edge from-layer="2499" from-port="0" to-layer="2501" to-port="3" />
		<edge from-layer="2500" from-port="0" to-layer="2501" to-port="4" />
		<edge from-layer="2501" from-port="5" to-layer="2503" to-port="0" />
		<edge from-layer="2502" from-port="0" to-layer="2503" to-port="1" />
		<edge from-layer="2503" from-port="2" to-layer="2508" to-port="0" />
		<edge from-layer="2504" from-port="0" to-layer="2508" to-port="1" />
		<edge from-layer="2505" from-port="0" to-layer="2508" to-port="2" />
		<edge from-layer="2506" from-port="0" to-layer="2508" to-port="3" />
		<edge from-layer="2507" from-port="0" to-layer="2508" to-port="4" />
		<edge from-layer="2508" from-port="5" to-layer="2513" to-port="0" />
		<edge from-layer="2509" from-port="0" to-layer="2513" to-port="1" />
		<edge from-layer="2510" from-port="0" to-layer="2513" to-port="2" />
		<edge from-layer="2511" from-port="0" to-layer="2513" to-port="3" />
		<edge from-layer="2512" from-port="0" to-layer="2513" to-port="4" />
		<edge from-layer="2513" from-port="5" to-layer="2747" to-port="2" />
		<edge from-layer="2514" from-port="0" to-layer="2515" to-port="0" />
		<edge from-layer="2515" from-port="1" to-layer="2517" to-port="0" />
		<edge from-layer="2516" from-port="0" to-layer="2517" to-port="1" />
		<edge from-layer="2517" from-port="2" to-layer="2518" to-port="1" />
		<edge from-layer="2518" from-port="2" to-layer="2521" to-port="0" />
		<edge from-layer="2519" from-port="0" to-layer="2520" to-port="0" />
		<edge from-layer="2520" from-port="1" to-layer="2521" to-port="1" />
		<edge from-layer="2521" from-port="2" to-layer="2526" to-port="0" />
		<edge from-layer="2522" from-port="0" to-layer="2526" to-port="1" />
		<edge from-layer="2523" from-port="0" to-layer="2526" to-port="2" />
		<edge from-layer="2524" from-port="0" to-layer="2526" to-port="3" />
		<edge from-layer="2525" from-port="0" to-layer="2526" to-port="4" />
		<edge from-layer="2526" from-port="5" to-layer="2531" to-port="0" />
		<edge from-layer="2527" from-port="0" to-layer="2531" to-port="1" />
		<edge from-layer="2528" from-port="0" to-layer="2531" to-port="2" />
		<edge from-layer="2529" from-port="0" to-layer="2531" to-port="3" />
		<edge from-layer="2530" from-port="0" to-layer="2531" to-port="4" />
		<edge from-layer="2531" from-port="5" to-layer="2536" to-port="0" />
		<edge from-layer="2532" from-port="0" to-layer="2533" to-port="0" />
		<edge from-layer="2533" from-port="1" to-layer="2535" to-port="0" />
		<edge from-layer="2534" from-port="0" to-layer="2535" to-port="1" />
		<edge from-layer="2535" from-port="2" to-layer="2536" to-port="1" />
		<edge from-layer="2536" from-port="2" to-layer="2541" to-port="0" />
		<edge from-layer="2537" from-port="0" to-layer="2541" to-port="1" />
		<edge from-layer="2538" from-port="0" to-layer="2541" to-port="2" />
		<edge from-layer="2539" from-port="0" to-layer="2541" to-port="3" />
		<edge from-layer="2540" from-port="0" to-layer="2541" to-port="4" />
		<edge from-layer="2541" from-port="5" to-layer="2546" to-port="0" />
		<edge from-layer="2542" from-port="0" to-layer="2546" to-port="1" />
		<edge from-layer="2543" from-port="0" to-layer="2546" to-port="2" />
		<edge from-layer="2544" from-port="0" to-layer="2546" to-port="3" />
		<edge from-layer="2545" from-port="0" to-layer="2546" to-port="4" />
		<edge from-layer="2546" from-port="5" to-layer="2548" to-port="0" />
		<edge from-layer="2546" from-port="5" to-layer="2553" to-port="0" />
		<edge from-layer="2546" from-port="5" to-layer="2606" to-port="0" />
		<edge from-layer="2546" from-port="5" to-layer="2617" to-port="0" />
		<edge from-layer="2547" from-port="0" to-layer="2552" to-port="0" />
		<edge from-layer="2548" from-port="1" to-layer="2549" to-port="0" />
		<edge from-layer="2549" from-port="1" to-layer="2550" to-port="0" />
		<edge from-layer="2550" from-port="1" to-layer="2552" to-port="1" />
		<edge from-layer="2551" from-port="0" to-layer="2552" to-port="2" />
		<edge from-layer="2552" from-port="3" to-layer="2553" to-port="1" />
		<edge from-layer="2553" from-port="2" to-layer="2558" to-port="0" />
		<edge from-layer="2554" from-port="0" to-layer="2558" to-port="1" />
		<edge from-layer="2555" from-port="0" to-layer="2558" to-port="2" />
		<edge from-layer="2556" from-port="0" to-layer="2558" to-port="3" />
		<edge from-layer="2557" from-port="0" to-layer="2558" to-port="4" />
		<edge from-layer="2558" from-port="5" to-layer="2563" to-port="0" />
		<edge from-layer="2559" from-port="0" to-layer="2563" to-port="1" />
		<edge from-layer="2560" from-port="0" to-layer="2563" to-port="2" />
		<edge from-layer="2561" from-port="0" to-layer="2563" to-port="3" />
		<edge from-layer="2562" from-port="0" to-layer="2563" to-port="4" />
		<edge from-layer="2563" from-port="5" to-layer="2568" to-port="0" />
		<edge from-layer="2564" from-port="0" to-layer="2565" to-port="0" />
		<edge from-layer="2565" from-port="1" to-layer="2567" to-port="0" />
		<edge from-layer="2566" from-port="0" to-layer="2567" to-port="1" />
		<edge from-layer="2567" from-port="2" to-layer="2568" to-port="1" />
		<edge from-layer="2568" from-port="2" to-layer="2571" to-port="0" />
		<edge from-layer="2569" from-port="0" to-layer="2570" to-port="0" />
		<edge from-layer="2570" from-port="1" to-layer="2571" to-port="1" />
		<edge from-layer="2571" from-port="2" to-layer="2572" to-port="0" />
		<edge from-layer="2572" from-port="1" to-layer="2577" to-port="0" />
		<edge from-layer="2573" from-port="0" to-layer="2577" to-port="1" />
		<edge from-layer="2574" from-port="0" to-layer="2577" to-port="2" />
		<edge from-layer="2575" from-port="0" to-layer="2577" to-port="3" />
		<edge from-layer="2576" from-port="0" to-layer="2577" to-port="4" />
		<edge from-layer="2577" from-port="5" to-layer="2582" to-port="0" />
		<edge from-layer="2578" from-port="0" to-layer="2582" to-port="1" />
		<edge from-layer="2579" from-port="0" to-layer="2582" to-port="2" />
		<edge from-layer="2580" from-port="0" to-layer="2582" to-port="3" />
		<edge from-layer="2581" from-port="0" to-layer="2582" to-port="4" />
		<edge from-layer="2582" from-port="5" to-layer="2587" to-port="0" />
		<edge from-layer="2583" from-port="0" to-layer="2584" to-port="0" />
		<edge from-layer="2584" from-port="1" to-layer="2586" to-port="0" />
		<edge from-layer="2585" from-port="0" to-layer="2586" to-port="1" />
		<edge from-layer="2586" from-port="2" to-layer="2587" to-port="1" />
		<edge from-layer="2587" from-port="2" to-layer="2590" to-port="0" />
		<edge from-layer="2588" from-port="0" to-layer="2589" to-port="0" />
		<edge from-layer="2589" from-port="1" to-layer="2590" to-port="1" />
		<edge from-layer="2590" from-port="2" to-layer="2595" to-port="0" />
		<edge from-layer="2591" from-port="0" to-layer="2592" to-port="0" />
		<edge from-layer="2592" from-port="1" to-layer="2595" to-port="1" />
		<edge from-layer="2593" from-port="0" to-layer="2594" to-port="0" />
		<edge from-layer="2594" from-port="1" to-layer="2595" to-port="2" />
		<edge from-layer="2595" from-port="3" to-layer="2600" to-port="0" />
		<edge from-layer="2596" from-port="0" to-layer="2600" to-port="1" />
		<edge from-layer="2597" from-port="0" to-layer="2600" to-port="2" />
		<edge from-layer="2598" from-port="0" to-layer="2600" to-port="3" />
		<edge from-layer="2599" from-port="0" to-layer="2600" to-port="4" />
		<edge from-layer="2600" from-port="5" to-layer="2605" to-port="0" />
		<edge from-layer="2601" from-port="0" to-layer="2605" to-port="1" />
		<edge from-layer="2602" from-port="0" to-layer="2605" to-port="2" />
		<edge from-layer="2603" from-port="0" to-layer="2605" to-port="3" />
		<edge from-layer="2604" from-port="0" to-layer="2605" to-port="4" />
		<edge from-layer="2605" from-port="5" to-layer="2606" to-port="1" />
		<edge from-layer="2606" from-port="2" to-layer="2611" to-port="0" />
		<edge from-layer="2607" from-port="0" to-layer="2611" to-port="1" />
		<edge from-layer="2608" from-port="0" to-layer="2611" to-port="2" />
		<edge from-layer="2609" from-port="0" to-layer="2611" to-port="3" />
		<edge from-layer="2610" from-port="0" to-layer="2611" to-port="4" />
		<edge from-layer="2611" from-port="5" to-layer="2616" to-port="0" />
		<edge from-layer="2612" from-port="0" to-layer="2616" to-port="1" />
		<edge from-layer="2613" from-port="0" to-layer="2616" to-port="2" />
		<edge from-layer="2614" from-port="0" to-layer="2616" to-port="3" />
		<edge from-layer="2615" from-port="0" to-layer="2616" to-port="4" />
		<edge from-layer="2616" from-port="5" to-layer="2617" to-port="1" />
		<edge from-layer="2617" from-port="2" to-layer="2622" to-port="0" />
		<edge from-layer="2618" from-port="0" to-layer="2622" to-port="1" />
		<edge from-layer="2619" from-port="0" to-layer="2622" to-port="2" />
		<edge from-layer="2620" from-port="0" to-layer="2622" to-port="3" />
		<edge from-layer="2621" from-port="0" to-layer="2622" to-port="4" />
		<edge from-layer="2622" from-port="5" to-layer="2627" to-port="0" />
		<edge from-layer="2623" from-port="0" to-layer="2627" to-port="1" />
		<edge from-layer="2624" from-port="0" to-layer="2627" to-port="2" />
		<edge from-layer="2625" from-port="0" to-layer="2627" to-port="3" />
		<edge from-layer="2626" from-port="0" to-layer="2627" to-port="4" />
		<edge from-layer="2627" from-port="5" to-layer="2640" to-port="0" />
		<edge from-layer="2628" from-port="0" to-layer="2629" to-port="1" />
		<edge from-layer="2629" from-port="2" to-layer="2634" to-port="0" />
		<edge from-layer="2630" from-port="0" to-layer="2634" to-port="1" />
		<edge from-layer="2631" from-port="0" to-layer="2634" to-port="2" />
		<edge from-layer="2632" from-port="0" to-layer="2634" to-port="3" />
		<edge from-layer="2633" from-port="0" to-layer="2634" to-port="4" />
		<edge from-layer="2634" from-port="5" to-layer="2639" to-port="0" />
		<edge from-layer="2635" from-port="0" to-layer="2639" to-port="1" />
		<edge from-layer="2636" from-port="0" to-layer="2639" to-port="2" />
		<edge from-layer="2637" from-port="0" to-layer="2639" to-port="3" />
		<edge from-layer="2638" from-port="0" to-layer="2639" to-port="4" />
		<edge from-layer="2639" from-port="5" to-layer="2640" to-port="1" />
		<edge from-layer="2640" from-port="2" to-layer="2645" to-port="0" />
		<edge from-layer="2641" from-port="0" to-layer="2645" to-port="1" />
		<edge from-layer="2642" from-port="0" to-layer="2645" to-port="2" />
		<edge from-layer="2643" from-port="0" to-layer="2645" to-port="3" />
		<edge from-layer="2644" from-port="0" to-layer="2645" to-port="4" />
		<edge from-layer="2645" from-port="5" to-layer="2650" to-port="0" />
		<edge from-layer="2646" from-port="0" to-layer="2650" to-port="1" />
		<edge from-layer="2647" from-port="0" to-layer="2650" to-port="2" />
		<edge from-layer="2648" from-port="0" to-layer="2650" to-port="3" />
		<edge from-layer="2649" from-port="0" to-layer="2650" to-port="4" />
		<edge from-layer="2650" from-port="5" to-layer="2655" to-port="0" />
		<edge from-layer="2651" from-port="0" to-layer="2652" to-port="0" />
		<edge from-layer="2652" from-port="1" to-layer="2654" to-port="0" />
		<edge from-layer="2653" from-port="0" to-layer="2654" to-port="1" />
		<edge from-layer="2654" from-port="2" to-layer="2655" to-port="1" />
		<edge from-layer="2655" from-port="2" to-layer="2660" to-port="0" />
		<edge from-layer="2656" from-port="0" to-layer="2660" to-port="1" />
		<edge from-layer="2657" from-port="0" to-layer="2660" to-port="2" />
		<edge from-layer="2658" from-port="0" to-layer="2660" to-port="3" />
		<edge from-layer="2659" from-port="0" to-layer="2660" to-port="4" />
		<edge from-layer="2660" from-port="5" to-layer="2665" to-port="0" />
		<edge from-layer="2661" from-port="0" to-layer="2665" to-port="1" />
		<edge from-layer="2662" from-port="0" to-layer="2665" to-port="2" />
		<edge from-layer="2663" from-port="0" to-layer="2665" to-port="3" />
		<edge from-layer="2664" from-port="0" to-layer="2665" to-port="4" />
		<edge from-layer="2665" from-port="5" to-layer="2667" to-port="0" />
		<edge from-layer="2665" from-port="5" to-layer="2672" to-port="0" />
		<edge from-layer="2665" from-port="5" to-layer="2736" to-port="0" />
		<edge from-layer="2665" from-port="5" to-layer="2725" to-port="0" />
		<edge from-layer="2666" from-port="0" to-layer="2671" to-port="0" />
		<edge from-layer="2667" from-port="1" to-layer="2668" to-port="0" />
		<edge from-layer="2668" from-port="1" to-layer="2669" to-port="0" />
		<edge from-layer="2669" from-port="1" to-layer="2671" to-port="1" />
		<edge from-layer="2670" from-port="0" to-layer="2671" to-port="2" />
		<edge from-layer="2671" from-port="3" to-layer="2672" to-port="1" />
		<edge from-layer="2672" from-port="2" to-layer="2677" to-port="0" />
		<edge from-layer="2673" from-port="0" to-layer="2677" to-port="1" />
		<edge from-layer="2674" from-port="0" to-layer="2677" to-port="2" />
		<edge from-layer="2675" from-port="0" to-layer="2677" to-port="3" />
		<edge from-layer="2676" from-port="0" to-layer="2677" to-port="4" />
		<edge from-layer="2677" from-port="5" to-layer="2682" to-port="0" />
		<edge from-layer="2678" from-port="0" to-layer="2682" to-port="1" />
		<edge from-layer="2679" from-port="0" to-layer="2682" to-port="2" />
		<edge from-layer="2680" from-port="0" to-layer="2682" to-port="3" />
		<edge from-layer="2681" from-port="0" to-layer="2682" to-port="4" />
		<edge from-layer="2682" from-port="5" to-layer="2687" to-port="0" />
		<edge from-layer="2683" from-port="0" to-layer="2684" to-port="0" />
		<edge from-layer="2684" from-port="1" to-layer="2686" to-port="0" />
		<edge from-layer="2685" from-port="0" to-layer="2686" to-port="1" />
		<edge from-layer="2686" from-port="2" to-layer="2687" to-port="1" />
		<edge from-layer="2687" from-port="2" to-layer="2690" to-port="0" />
		<edge from-layer="2688" from-port="0" to-layer="2689" to-port="0" />
		<edge from-layer="2689" from-port="1" to-layer="2690" to-port="1" />
		<edge from-layer="2690" from-port="2" to-layer="2691" to-port="0" />
		<edge from-layer="2691" from-port="1" to-layer="2696" to-port="0" />
		<edge from-layer="2692" from-port="0" to-layer="2696" to-port="1" />
		<edge from-layer="2693" from-port="0" to-layer="2696" to-port="2" />
		<edge from-layer="2694" from-port="0" to-layer="2696" to-port="3" />
		<edge from-layer="2695" from-port="0" to-layer="2696" to-port="4" />
		<edge from-layer="2696" from-port="5" to-layer="2701" to-port="0" />
		<edge from-layer="2697" from-port="0" to-layer="2701" to-port="1" />
		<edge from-layer="2698" from-port="0" to-layer="2701" to-port="2" />
		<edge from-layer="2699" from-port="0" to-layer="2701" to-port="3" />
		<edge from-layer="2700" from-port="0" to-layer="2701" to-port="4" />
		<edge from-layer="2701" from-port="5" to-layer="2706" to-port="0" />
		<edge from-layer="2702" from-port="0" to-layer="2703" to-port="0" />
		<edge from-layer="2703" from-port="1" to-layer="2705" to-port="0" />
		<edge from-layer="2704" from-port="0" to-layer="2705" to-port="1" />
		<edge from-layer="2705" from-port="2" to-layer="2706" to-port="1" />
		<edge from-layer="2706" from-port="2" to-layer="2709" to-port="0" />
		<edge from-layer="2707" from-port="0" to-layer="2708" to-port="0" />
		<edge from-layer="2708" from-port="1" to-layer="2709" to-port="1" />
		<edge from-layer="2709" from-port="2" to-layer="2714" to-port="0" />
		<edge from-layer="2710" from-port="0" to-layer="2711" to-port="0" />
		<edge from-layer="2711" from-port="1" to-layer="2714" to-port="1" />
		<edge from-layer="2712" from-port="0" to-layer="2713" to-port="0" />
		<edge from-layer="2713" from-port="1" to-layer="2714" to-port="2" />
		<edge from-layer="2714" from-port="3" to-layer="2719" to-port="0" />
		<edge from-layer="2715" from-port="0" to-layer="2719" to-port="1" />
		<edge from-layer="2716" from-port="0" to-layer="2719" to-port="2" />
		<edge from-layer="2717" from-port="0" to-layer="2719" to-port="3" />
		<edge from-layer="2718" from-port="0" to-layer="2719" to-port="4" />
		<edge from-layer="2719" from-port="5" to-layer="2724" to-port="0" />
		<edge from-layer="2720" from-port="0" to-layer="2724" to-port="1" />
		<edge from-layer="2721" from-port="0" to-layer="2724" to-port="2" />
		<edge from-layer="2722" from-port="0" to-layer="2724" to-port="3" />
		<edge from-layer="2723" from-port="0" to-layer="2724" to-port="4" />
		<edge from-layer="2724" from-port="5" to-layer="2725" to-port="1" />
		<edge from-layer="2725" from-port="2" to-layer="2730" to-port="0" />
		<edge from-layer="2726" from-port="0" to-layer="2730" to-port="1" />
		<edge from-layer="2727" from-port="0" to-layer="2730" to-port="2" />
		<edge from-layer="2728" from-port="0" to-layer="2730" to-port="3" />
		<edge from-layer="2729" from-port="0" to-layer="2730" to-port="4" />
		<edge from-layer="2730" from-port="5" to-layer="2735" to-port="0" />
		<edge from-layer="2731" from-port="0" to-layer="2735" to-port="1" />
		<edge from-layer="2732" from-port="0" to-layer="2735" to-port="2" />
		<edge from-layer="2733" from-port="0" to-layer="2735" to-port="3" />
		<edge from-layer="2734" from-port="0" to-layer="2735" to-port="4" />
		<edge from-layer="2735" from-port="5" to-layer="2736" to-port="1" />
		<edge from-layer="2736" from-port="2" to-layer="2741" to-port="0" />
		<edge from-layer="2737" from-port="0" to-layer="2741" to-port="1" />
		<edge from-layer="2738" from-port="0" to-layer="2741" to-port="2" />
		<edge from-layer="2739" from-port="0" to-layer="2741" to-port="3" />
		<edge from-layer="2740" from-port="0" to-layer="2741" to-port="4" />
		<edge from-layer="2741" from-port="5" to-layer="2746" to-port="0" />
		<edge from-layer="2742" from-port="0" to-layer="2746" to-port="1" />
		<edge from-layer="2743" from-port="0" to-layer="2746" to-port="2" />
		<edge from-layer="2744" from-port="0" to-layer="2746" to-port="3" />
		<edge from-layer="2745" from-port="0" to-layer="2746" to-port="4" />
		<edge from-layer="2746" from-port="5" to-layer="2747" to-port="3" />
		<edge from-layer="2747" from-port="4" to-layer="2752" to-port="0" />
		<edge from-layer="2748" from-port="0" to-layer="2749" to-port="0" />
		<edge from-layer="2749" from-port="1" to-layer="2751" to-port="0" />
		<edge from-layer="2750" from-port="0" to-layer="2751" to-port="1" />
		<edge from-layer="2751" from-port="2" to-layer="2752" to-port="1" />
		<edge from-layer="2752" from-port="2" to-layer="2757" to-port="0" />
		<edge from-layer="2753" from-port="0" to-layer="2757" to-port="1" />
		<edge from-layer="2754" from-port="0" to-layer="2757" to-port="2" />
		<edge from-layer="2755" from-port="0" to-layer="2757" to-port="3" />
		<edge from-layer="2756" from-port="0" to-layer="2757" to-port="4" />
		<edge from-layer="2757" from-port="5" to-layer="2762" to-port="0" />
		<edge from-layer="2758" from-port="0" to-layer="2762" to-port="1" />
		<edge from-layer="2759" from-port="0" to-layer="2762" to-port="2" />
		<edge from-layer="2760" from-port="0" to-layer="2762" to-port="3" />
		<edge from-layer="2761" from-port="0" to-layer="2762" to-port="4" />
		<edge from-layer="2762" from-port="5" to-layer="2770" to-port="0" />
		<edge from-layer="2763" from-port="0" to-layer="2764" to-port="0" />
		<edge from-layer="2764" from-port="1" to-layer="2770" to-port="1" />
		<edge from-layer="2765" from-port="0" to-layer="2766" to-port="0" />
		<edge from-layer="2766" from-port="1" to-layer="2770" to-port="2" />
		<edge from-layer="2767" from-port="0" to-layer="2768" to-port="0" />
		<edge from-layer="2768" from-port="1" to-layer="2770" to-port="3" />
		<edge from-layer="2769" from-port="0" to-layer="2770" to-port="4" />
		<edge from-layer="2770" from-port="5" to-layer="2771" to-port="0" />
		<edge from-layer="2771" from-port="1" to-layer="2776" to-port="0" />
		<edge from-layer="2772" from-port="0" to-layer="2776" to-port="1" />
		<edge from-layer="2773" from-port="0" to-layer="2776" to-port="2" />
		<edge from-layer="2774" from-port="0" to-layer="2776" to-port="3" />
		<edge from-layer="2775" from-port="0" to-layer="2776" to-port="4" />
		<edge from-layer="2776" from-port="5" to-layer="2781" to-port="0" />
		<edge from-layer="2777" from-port="0" to-layer="2781" to-port="1" />
		<edge from-layer="2778" from-port="0" to-layer="2781" to-port="2" />
		<edge from-layer="2779" from-port="0" to-layer="2781" to-port="3" />
		<edge from-layer="2780" from-port="0" to-layer="2781" to-port="4" />
		<edge from-layer="2781" from-port="5" to-layer="2786" to-port="0" />
		<edge from-layer="2782" from-port="0" to-layer="2783" to-port="0" />
		<edge from-layer="2783" from-port="1" to-layer="2785" to-port="0" />
		<edge from-layer="2784" from-port="0" to-layer="2785" to-port="1" />
		<edge from-layer="2785" from-port="2" to-layer="2786" to-port="1" />
		<edge from-layer="2786" from-port="2" to-layer="2789" to-port="0" />
		<edge from-layer="2787" from-port="0" to-layer="2788" to-port="0" />
		<edge from-layer="2788" from-port="1" to-layer="2789" to-port="1" />
		<edge from-layer="2789" from-port="2" to-layer="2794" to-port="0" />
		<edge from-layer="2790" from-port="0" to-layer="2794" to-port="1" />
		<edge from-layer="2791" from-port="0" to-layer="2794" to-port="2" />
		<edge from-layer="2792" from-port="0" to-layer="2794" to-port="3" />
		<edge from-layer="2793" from-port="0" to-layer="2794" to-port="4" />
		<edge from-layer="2794" from-port="5" to-layer="2799" to-port="0" />
		<edge from-layer="2795" from-port="0" to-layer="2799" to-port="1" />
		<edge from-layer="2796" from-port="0" to-layer="2799" to-port="2" />
		<edge from-layer="2797" from-port="0" to-layer="2799" to-port="3" />
		<edge from-layer="2798" from-port="0" to-layer="2799" to-port="4" />
		<edge from-layer="2799" from-port="5" to-layer="2808" to-port="0" />
		<edge from-layer="2800" from-port="0" to-layer="2801" to-port="0" />
		<edge from-layer="2801" from-port="1" to-layer="2808" to-port="1" />
		<edge from-layer="2802" from-port="0" to-layer="2803" to-port="0" />
		<edge from-layer="2803" from-port="1" to-layer="2808" to-port="2" />
		<edge from-layer="2804" from-port="0" to-layer="2805" to-port="0" />
		<edge from-layer="2805" from-port="1" to-layer="2808" to-port="3" />
		<edge from-layer="2806" from-port="0" to-layer="2807" to-port="0" />
		<edge from-layer="2807" from-port="1" to-layer="2808" to-port="4" />
		<edge from-layer="2808" from-port="5" to-layer="2809" to-port="0" />
		<edge from-layer="2809" from-port="1" to-layer="2814" to-port="0" />
		<edge from-layer="2810" from-port="0" to-layer="2814" to-port="1" />
		<edge from-layer="2811" from-port="0" to-layer="2814" to-port="2" />
		<edge from-layer="2812" from-port="0" to-layer="2814" to-port="3" />
		<edge from-layer="2813" from-port="0" to-layer="2814" to-port="4" />
		<edge from-layer="2814" from-port="5" to-layer="2819" to-port="0" />
		<edge from-layer="2815" from-port="0" to-layer="2819" to-port="1" />
		<edge from-layer="2816" from-port="0" to-layer="2819" to-port="2" />
		<edge from-layer="2817" from-port="0" to-layer="2819" to-port="3" />
		<edge from-layer="2818" from-port="0" to-layer="2819" to-port="4" />
		<edge from-layer="2819" from-port="5" to-layer="2824" to-port="0" />
		<edge from-layer="2820" from-port="0" to-layer="2821" to-port="0" />
		<edge from-layer="2821" from-port="1" to-layer="2823" to-port="0" />
		<edge from-layer="2822" from-port="0" to-layer="2823" to-port="1" />
		<edge from-layer="2823" from-port="2" to-layer="2824" to-port="1" />
		<edge from-layer="2824" from-port="2" to-layer="2827" to-port="0" />
		<edge from-layer="2825" from-port="0" to-layer="2826" to-port="0" />
		<edge from-layer="2826" from-port="1" to-layer="2827" to-port="1" />
		<edge from-layer="2827" from-port="2" to-layer="2828" to-port="0" />
		<edge from-layer="2828" from-port="1" to-layer="2829" to-port="0" />
	</edges>
	<rt_info>
		<nncf>
			<friendly_names_were_updated value="True" />
			<quantization>
				<advanced_parameters value="{}" />
				<fast_bias_correction value="True" />
				<ignored_scope value="None" />
				<model_type value="None" />
				<preset value="mixed" />
				<subset_size value="300" />
				<target_device value="ANY" />
			</quantization>
			<version value="2.19.0" />
		</nncf>
	</rt_info>
</net>
